<?xml version="1.0"?>
<net name="torch_jit" version="11">
	<layers>
		<layer id="0" name="input" type="Parameter" version="opset1">
			<data shape="?,5,64,224,224" element_type="f32" />
			<output>
				<port id="0" precision="FP32" names="input">
					<dim>-1</dim>
					<dim>5</dim>
					<dim>64</dim>
					<dim>224</dim>
					<dim>224</dim>
				</port>
			</output>
		</layer>
		<layer id="1" name="Constant_2114" type="Const" version="opset1">
			<data element_type="i64" shape="2" offset="0" size="16" />
			<output>
				<port id="0" precision="I64">
					<dim>2</dim>
				</port>
			</output>
		</layer>
		<layer id="2" name="Constant_2117" type="Const" version="opset1">
			<data element_type="i64" shape="2" offset="16" size="16" />
			<output>
				<port id="0" precision="I64">
					<dim>2</dim>
				</port>
			</output>
		</layer>
		<layer id="3" name="Constant_2120" type="Const" version="opset1">
			<data element_type="i64" shape="2" offset="32" size="16" />
			<output>
				<port id="0" precision="I64">
					<dim>2</dim>
				</port>
			</output>
		</layer>
		<layer id="4" name="/Slice" type="StridedSlice" version="opset1">
			<data begin_mask="1, 0" end_mask="1, 0" new_axis_mask="" shrink_axis_mask="" ellipsis_mask="" />
			<input>
				<port id="0" precision="FP32">
					<dim>-1</dim>
					<dim>5</dim>
					<dim>64</dim>
					<dim>224</dim>
					<dim>224</dim>
				</port>
				<port id="1" precision="I64">
					<dim>2</dim>
				</port>
				<port id="2" precision="I64">
					<dim>2</dim>
				</port>
				<port id="3" precision="I64">
					<dim>2</dim>
				</port>
			</input>
			<output>
				<port id="4" precision="FP32" names="/Slice_output_0">
					<dim>-1</dim>
					<dim>3</dim>
					<dim>64</dim>
					<dim>224</dim>
					<dim>224</dim>
				</port>
			</output>
		</layer>
		<layer id="5" name="onnx::Conv_236" type="Const" version="opset1">
			<data element_type="f32" shape="16, 3, 1, 3, 3" offset="48" size="1728" />
			<output>
				<port id="0" precision="FP32" names="onnx::Conv_236">
					<dim>16</dim>
					<dim>3</dim>
					<dim>1</dim>
					<dim>3</dim>
					<dim>3</dim>
				</port>
			</output>
		</layer>
		<layer id="6" name="/RGB_Network/RGB_Network.0/Conv3DBlock/Conv3DBlock.0/Conv/WithoutBiases" type="Convolution" version="opset1">
			<data strides="1, 1, 1" dilations="1, 1, 1" pads_begin="1, 1, 1" pads_end="1, 1, 1" auto_pad="explicit" />
			<input>
				<port id="0" precision="FP32">
					<dim>-1</dim>
					<dim>3</dim>
					<dim>64</dim>
					<dim>224</dim>
					<dim>224</dim>
				</port>
				<port id="1" precision="FP32">
					<dim>16</dim>
					<dim>3</dim>
					<dim>1</dim>
					<dim>3</dim>
					<dim>3</dim>
				</port>
			</input>
			<output>
				<port id="2" precision="FP32">
					<dim>-1</dim>
					<dim>16</dim>
					<dim>66</dim>
					<dim>224</dim>
					<dim>224</dim>
				</port>
			</output>
		</layer>
		<layer id="7" name="Reshape_64" type="Const" version="opset1">
			<data element_type="f32" shape="1, 16, 1, 1, 1" offset="1776" size="64" />
			<output>
				<port id="0" precision="FP32">
					<dim>1</dim>
					<dim>16</dim>
					<dim>1</dim>
					<dim>1</dim>
					<dim>1</dim>
				</port>
			</output>
		</layer>
		<layer id="8" name="/RGB_Network/RGB_Network.0/Conv3DBlock/Conv3DBlock.0/Conv" type="Add" version="opset1">
			<data auto_broadcast="numpy" />
			<input>
				<port id="0" precision="FP32">
					<dim>-1</dim>
					<dim>16</dim>
					<dim>66</dim>
					<dim>224</dim>
					<dim>224</dim>
				</port>
				<port id="1" precision="FP32">
					<dim>1</dim>
					<dim>16</dim>
					<dim>1</dim>
					<dim>1</dim>
					<dim>1</dim>
				</port>
			</input>
			<output>
				<port id="2" precision="FP32" names="/RGB_Network/RGB_Network.0/Conv3DBlock/Conv3DBlock.0/Conv_output_0">
					<dim>-1</dim>
					<dim>16</dim>
					<dim>66</dim>
					<dim>224</dim>
					<dim>224</dim>
				</port>
			</output>
		</layer>
		<layer id="9" name="/RGB_Network/RGB_Network.0/Conv3DBlock/activation/Relu" type="ReLU" version="opset1">
			<input>
				<port id="0" precision="FP32">
					<dim>-1</dim>
					<dim>16</dim>
					<dim>66</dim>
					<dim>224</dim>
					<dim>224</dim>
				</port>
			</input>
			<output>
				<port id="1" precision="FP32" names="/RGB_Network/RGB_Network.0/Conv3DBlock/activation/Relu_output_0">
					<dim>-1</dim>
					<dim>16</dim>
					<dim>66</dim>
					<dim>224</dim>
					<dim>224</dim>
				</port>
			</output>
		</layer>
		<layer id="10" name="onnx::Conv_239" type="Const" version="opset1">
			<data element_type="f32" shape="16, 16, 3, 1, 1" offset="1840" size="3072" />
			<output>
				<port id="0" precision="FP32" names="onnx::Conv_239">
					<dim>16</dim>
					<dim>16</dim>
					<dim>3</dim>
					<dim>1</dim>
					<dim>1</dim>
				</port>
			</output>
		</layer>
		<layer id="11" name="/RGB_Network/RGB_Network.0/Conv3DBlock/Conv3DBlock.3/Conv/WithoutBiases" type="Convolution" version="opset1">
			<data strides="1, 1, 1" dilations="1, 1, 1" pads_begin="1, 1, 1" pads_end="1, 1, 1" auto_pad="explicit" />
			<input>
				<port id="0" precision="FP32">
					<dim>-1</dim>
					<dim>16</dim>
					<dim>66</dim>
					<dim>224</dim>
					<dim>224</dim>
				</port>
				<port id="1" precision="FP32">
					<dim>16</dim>
					<dim>16</dim>
					<dim>3</dim>
					<dim>1</dim>
					<dim>1</dim>
				</port>
			</input>
			<output>
				<port id="2" precision="FP32">
					<dim>-1</dim>
					<dim>16</dim>
					<dim>66</dim>
					<dim>226</dim>
					<dim>226</dim>
				</port>
			</output>
		</layer>
		<layer id="12" name="Reshape_80" type="Const" version="opset1">
			<data element_type="f32" shape="1, 16, 1, 1, 1" offset="4912" size="64" />
			<output>
				<port id="0" precision="FP32">
					<dim>1</dim>
					<dim>16</dim>
					<dim>1</dim>
					<dim>1</dim>
					<dim>1</dim>
				</port>
			</output>
		</layer>
		<layer id="13" name="/RGB_Network/RGB_Network.0/Conv3DBlock/Conv3DBlock.3/Conv" type="Add" version="opset1">
			<data auto_broadcast="numpy" />
			<input>
				<port id="0" precision="FP32">
					<dim>-1</dim>
					<dim>16</dim>
					<dim>66</dim>
					<dim>226</dim>
					<dim>226</dim>
				</port>
				<port id="1" precision="FP32">
					<dim>1</dim>
					<dim>16</dim>
					<dim>1</dim>
					<dim>1</dim>
					<dim>1</dim>
				</port>
			</input>
			<output>
				<port id="2" precision="FP32" names="/RGB_Network/RGB_Network.0/Conv3DBlock/Conv3DBlock.3/Conv_output_0">
					<dim>-1</dim>
					<dim>16</dim>
					<dim>66</dim>
					<dim>226</dim>
					<dim>226</dim>
				</port>
			</output>
		</layer>
		<layer id="14" name="/RGB_Network/RGB_Network.0/Conv3DBlock/activation_1/Relu" type="ReLU" version="opset1">
			<input>
				<port id="0" precision="FP32">
					<dim>-1</dim>
					<dim>16</dim>
					<dim>66</dim>
					<dim>226</dim>
					<dim>226</dim>
				</port>
			</input>
			<output>
				<port id="1" precision="FP32" names="/RGB_Network/RGB_Network.0/Conv3DBlock/activation_1/Relu_output_0">
					<dim>-1</dim>
					<dim>16</dim>
					<dim>66</dim>
					<dim>226</dim>
					<dim>226</dim>
				</port>
			</output>
		</layer>
		<layer id="15" name="/RGB_Network/RGB_Network.0/Conv3DBlock/Conv3DBlock.6/MaxPool" type="MaxPool" version="opset8">
			<data strides="1, 2, 2" dilations="1, 1, 1" pads_begin="0, 0, 0" pads_end="0, 0, 0" kernel="1, 2, 2" rounding_type="floor" auto_pad="explicit" index_element_type="i64" axis="0" />
			<input>
				<port id="0" precision="FP32">
					<dim>-1</dim>
					<dim>16</dim>
					<dim>66</dim>
					<dim>226</dim>
					<dim>226</dim>
				</port>
			</input>
			<output>
				<port id="1" precision="FP32" names="/RGB_Network/RGB_Network.0/Conv3DBlock/Conv3DBlock.6/MaxPool_output_0">
					<dim>-1</dim>
					<dim>16</dim>
					<dim>66</dim>
					<dim>113</dim>
					<dim>113</dim>
				</port>
				<port id="2" precision="I64">
					<dim>-1</dim>
					<dim>16</dim>
					<dim>66</dim>
					<dim>113</dim>
					<dim>113</dim>
				</port>
			</output>
		</layer>
		<layer id="16" name="onnx::Conv_242" type="Const" version="opset1">
			<data element_type="f32" shape="16, 16, 1, 3, 3" offset="4976" size="9216" />
			<output>
				<port id="0" precision="FP32" names="onnx::Conv_242">
					<dim>16</dim>
					<dim>16</dim>
					<dim>1</dim>
					<dim>3</dim>
					<dim>3</dim>
				</port>
			</output>
		</layer>
		<layer id="17" name="/RGB_Network/RGB_Network.1/Conv3DBlock/Conv3DBlock.0/Conv/WithoutBiases" type="Convolution" version="opset1">
			<data strides="1, 1, 1" dilations="1, 1, 1" pads_begin="1, 1, 1" pads_end="1, 1, 1" auto_pad="explicit" />
			<input>
				<port id="0" precision="FP32">
					<dim>-1</dim>
					<dim>16</dim>
					<dim>66</dim>
					<dim>113</dim>
					<dim>113</dim>
				</port>
				<port id="1" precision="FP32">
					<dim>16</dim>
					<dim>16</dim>
					<dim>1</dim>
					<dim>3</dim>
					<dim>3</dim>
				</port>
			</input>
			<output>
				<port id="2" precision="FP32">
					<dim>-1</dim>
					<dim>16</dim>
					<dim>68</dim>
					<dim>113</dim>
					<dim>113</dim>
				</port>
			</output>
		</layer>
		<layer id="18" name="Reshape_97" type="Const" version="opset1">
			<data element_type="f32" shape="1, 16, 1, 1, 1" offset="14192" size="64" />
			<output>
				<port id="0" precision="FP32">
					<dim>1</dim>
					<dim>16</dim>
					<dim>1</dim>
					<dim>1</dim>
					<dim>1</dim>
				</port>
			</output>
		</layer>
		<layer id="19" name="/RGB_Network/RGB_Network.1/Conv3DBlock/Conv3DBlock.0/Conv" type="Add" version="opset1">
			<data auto_broadcast="numpy" />
			<input>
				<port id="0" precision="FP32">
					<dim>-1</dim>
					<dim>16</dim>
					<dim>68</dim>
					<dim>113</dim>
					<dim>113</dim>
				</port>
				<port id="1" precision="FP32">
					<dim>1</dim>
					<dim>16</dim>
					<dim>1</dim>
					<dim>1</dim>
					<dim>1</dim>
				</port>
			</input>
			<output>
				<port id="2" precision="FP32" names="/RGB_Network/RGB_Network.1/Conv3DBlock/Conv3DBlock.0/Conv_output_0">
					<dim>-1</dim>
					<dim>16</dim>
					<dim>68</dim>
					<dim>113</dim>
					<dim>113</dim>
				</port>
			</output>
		</layer>
		<layer id="20" name="/RGB_Network/RGB_Network.1/Conv3DBlock/activation/Relu" type="ReLU" version="opset1">
			<input>
				<port id="0" precision="FP32">
					<dim>-1</dim>
					<dim>16</dim>
					<dim>68</dim>
					<dim>113</dim>
					<dim>113</dim>
				</port>
			</input>
			<output>
				<port id="1" precision="FP32" names="/RGB_Network/RGB_Network.1/Conv3DBlock/activation/Relu_output_0">
					<dim>-1</dim>
					<dim>16</dim>
					<dim>68</dim>
					<dim>113</dim>
					<dim>113</dim>
				</port>
			</output>
		</layer>
		<layer id="21" name="onnx::Conv_245" type="Const" version="opset1">
			<data element_type="f32" shape="16, 16, 3, 1, 1" offset="14256" size="3072" />
			<output>
				<port id="0" precision="FP32" names="onnx::Conv_245">
					<dim>16</dim>
					<dim>16</dim>
					<dim>3</dim>
					<dim>1</dim>
					<dim>1</dim>
				</port>
			</output>
		</layer>
		<layer id="22" name="/RGB_Network/RGB_Network.1/Conv3DBlock/Conv3DBlock.3/Conv/WithoutBiases" type="Convolution" version="opset1">
			<data strides="1, 1, 1" dilations="1, 1, 1" pads_begin="1, 1, 1" pads_end="1, 1, 1" auto_pad="explicit" />
			<input>
				<port id="0" precision="FP32">
					<dim>-1</dim>
					<dim>16</dim>
					<dim>68</dim>
					<dim>113</dim>
					<dim>113</dim>
				</port>
				<port id="1" precision="FP32">
					<dim>16</dim>
					<dim>16</dim>
					<dim>3</dim>
					<dim>1</dim>
					<dim>1</dim>
				</port>
			</input>
			<output>
				<port id="2" precision="FP32">
					<dim>-1</dim>
					<dim>16</dim>
					<dim>68</dim>
					<dim>115</dim>
					<dim>115</dim>
				</port>
			</output>
		</layer>
		<layer id="23" name="Reshape_113" type="Const" version="opset1">
			<data element_type="f32" shape="1, 16, 1, 1, 1" offset="17328" size="64" />
			<output>
				<port id="0" precision="FP32">
					<dim>1</dim>
					<dim>16</dim>
					<dim>1</dim>
					<dim>1</dim>
					<dim>1</dim>
				</port>
			</output>
		</layer>
		<layer id="24" name="/RGB_Network/RGB_Network.1/Conv3DBlock/Conv3DBlock.3/Conv" type="Add" version="opset1">
			<data auto_broadcast="numpy" />
			<input>
				<port id="0" precision="FP32">
					<dim>-1</dim>
					<dim>16</dim>
					<dim>68</dim>
					<dim>115</dim>
					<dim>115</dim>
				</port>
				<port id="1" precision="FP32">
					<dim>1</dim>
					<dim>16</dim>
					<dim>1</dim>
					<dim>1</dim>
					<dim>1</dim>
				</port>
			</input>
			<output>
				<port id="2" precision="FP32" names="/RGB_Network/RGB_Network.1/Conv3DBlock/Conv3DBlock.3/Conv_output_0">
					<dim>-1</dim>
					<dim>16</dim>
					<dim>68</dim>
					<dim>115</dim>
					<dim>115</dim>
				</port>
			</output>
		</layer>
		<layer id="25" name="/RGB_Network/RGB_Network.1/Conv3DBlock/activation_1/Relu" type="ReLU" version="opset1">
			<input>
				<port id="0" precision="FP32">
					<dim>-1</dim>
					<dim>16</dim>
					<dim>68</dim>
					<dim>115</dim>
					<dim>115</dim>
				</port>
			</input>
			<output>
				<port id="1" precision="FP32" names="/RGB_Network/RGB_Network.1/Conv3DBlock/activation_1/Relu_output_0">
					<dim>-1</dim>
					<dim>16</dim>
					<dim>68</dim>
					<dim>115</dim>
					<dim>115</dim>
				</port>
			</output>
		</layer>
		<layer id="26" name="/RGB_Network/RGB_Network.1/Conv3DBlock/Conv3DBlock.6/MaxPool" type="MaxPool" version="opset8">
			<data strides="1, 2, 2" dilations="1, 1, 1" pads_begin="0, 0, 0" pads_end="0, 0, 0" kernel="1, 2, 2" rounding_type="floor" auto_pad="explicit" index_element_type="i64" axis="0" />
			<input>
				<port id="0" precision="FP32">
					<dim>-1</dim>
					<dim>16</dim>
					<dim>68</dim>
					<dim>115</dim>
					<dim>115</dim>
				</port>
			</input>
			<output>
				<port id="1" precision="FP32" names="/RGB_Network/RGB_Network.1/Conv3DBlock/Conv3DBlock.6/MaxPool_output_0">
					<dim>-1</dim>
					<dim>16</dim>
					<dim>68</dim>
					<dim>57</dim>
					<dim>57</dim>
				</port>
				<port id="2" precision="I64">
					<dim>-1</dim>
					<dim>16</dim>
					<dim>68</dim>
					<dim>57</dim>
					<dim>57</dim>
				</port>
			</output>
		</layer>
		<layer id="27" name="onnx::Conv_248" type="Const" version="opset1">
			<data element_type="f32" shape="32, 16, 1, 3, 3" offset="17392" size="18432" />
			<output>
				<port id="0" precision="FP32" names="onnx::Conv_248">
					<dim>32</dim>
					<dim>16</dim>
					<dim>1</dim>
					<dim>3</dim>
					<dim>3</dim>
				</port>
			</output>
		</layer>
		<layer id="28" name="/RGB_Network/RGB_Network.2/Conv3DBlock/Conv3DBlock.0/Conv/WithoutBiases" type="Convolution" version="opset1">
			<data strides="1, 1, 1" dilations="1, 1, 1" pads_begin="1, 1, 1" pads_end="1, 1, 1" auto_pad="explicit" />
			<input>
				<port id="0" precision="FP32">
					<dim>-1</dim>
					<dim>16</dim>
					<dim>68</dim>
					<dim>57</dim>
					<dim>57</dim>
				</port>
				<port id="1" precision="FP32">
					<dim>32</dim>
					<dim>16</dim>
					<dim>1</dim>
					<dim>3</dim>
					<dim>3</dim>
				</port>
			</input>
			<output>
				<port id="2" precision="FP32">
					<dim>-1</dim>
					<dim>32</dim>
					<dim>70</dim>
					<dim>57</dim>
					<dim>57</dim>
				</port>
			</output>
		</layer>
		<layer id="29" name="Reshape_130" type="Const" version="opset1">
			<data element_type="f32" shape="1, 32, 1, 1, 1" offset="35824" size="128" />
			<output>
				<port id="0" precision="FP32">
					<dim>1</dim>
					<dim>32</dim>
					<dim>1</dim>
					<dim>1</dim>
					<dim>1</dim>
				</port>
			</output>
		</layer>
		<layer id="30" name="/RGB_Network/RGB_Network.2/Conv3DBlock/Conv3DBlock.0/Conv" type="Add" version="opset1">
			<data auto_broadcast="numpy" />
			<input>
				<port id="0" precision="FP32">
					<dim>-1</dim>
					<dim>32</dim>
					<dim>70</dim>
					<dim>57</dim>
					<dim>57</dim>
				</port>
				<port id="1" precision="FP32">
					<dim>1</dim>
					<dim>32</dim>
					<dim>1</dim>
					<dim>1</dim>
					<dim>1</dim>
				</port>
			</input>
			<output>
				<port id="2" precision="FP32" names="/RGB_Network/RGB_Network.2/Conv3DBlock/Conv3DBlock.0/Conv_output_0">
					<dim>-1</dim>
					<dim>32</dim>
					<dim>70</dim>
					<dim>57</dim>
					<dim>57</dim>
				</port>
			</output>
		</layer>
		<layer id="31" name="/RGB_Network/RGB_Network.2/Conv3DBlock/activation/Relu" type="ReLU" version="opset1">
			<input>
				<port id="0" precision="FP32">
					<dim>-1</dim>
					<dim>32</dim>
					<dim>70</dim>
					<dim>57</dim>
					<dim>57</dim>
				</port>
			</input>
			<output>
				<port id="1" precision="FP32" names="/RGB_Network/RGB_Network.2/Conv3DBlock/activation/Relu_output_0">
					<dim>-1</dim>
					<dim>32</dim>
					<dim>70</dim>
					<dim>57</dim>
					<dim>57</dim>
				</port>
			</output>
		</layer>
		<layer id="32" name="onnx::Conv_251" type="Const" version="opset1">
			<data element_type="f32" shape="32, 32, 3, 1, 1" offset="35952" size="12288" />
			<output>
				<port id="0" precision="FP32" names="onnx::Conv_251">
					<dim>32</dim>
					<dim>32</dim>
					<dim>3</dim>
					<dim>1</dim>
					<dim>1</dim>
				</port>
			</output>
		</layer>
		<layer id="33" name="/RGB_Network/RGB_Network.2/Conv3DBlock/Conv3DBlock.3/Conv/WithoutBiases" type="Convolution" version="opset1">
			<data strides="1, 1, 1" dilations="1, 1, 1" pads_begin="1, 1, 1" pads_end="1, 1, 1" auto_pad="explicit" />
			<input>
				<port id="0" precision="FP32">
					<dim>-1</dim>
					<dim>32</dim>
					<dim>70</dim>
					<dim>57</dim>
					<dim>57</dim>
				</port>
				<port id="1" precision="FP32">
					<dim>32</dim>
					<dim>32</dim>
					<dim>3</dim>
					<dim>1</dim>
					<dim>1</dim>
				</port>
			</input>
			<output>
				<port id="2" precision="FP32">
					<dim>-1</dim>
					<dim>32</dim>
					<dim>70</dim>
					<dim>59</dim>
					<dim>59</dim>
				</port>
			</output>
		</layer>
		<layer id="34" name="Reshape_146" type="Const" version="opset1">
			<data element_type="f32" shape="1, 32, 1, 1, 1" offset="48240" size="128" />
			<output>
				<port id="0" precision="FP32">
					<dim>1</dim>
					<dim>32</dim>
					<dim>1</dim>
					<dim>1</dim>
					<dim>1</dim>
				</port>
			</output>
		</layer>
		<layer id="35" name="/RGB_Network/RGB_Network.2/Conv3DBlock/Conv3DBlock.3/Conv" type="Add" version="opset1">
			<data auto_broadcast="numpy" />
			<input>
				<port id="0" precision="FP32">
					<dim>-1</dim>
					<dim>32</dim>
					<dim>70</dim>
					<dim>59</dim>
					<dim>59</dim>
				</port>
				<port id="1" precision="FP32">
					<dim>1</dim>
					<dim>32</dim>
					<dim>1</dim>
					<dim>1</dim>
					<dim>1</dim>
				</port>
			</input>
			<output>
				<port id="2" precision="FP32" names="/RGB_Network/RGB_Network.2/Conv3DBlock/Conv3DBlock.3/Conv_output_0">
					<dim>-1</dim>
					<dim>32</dim>
					<dim>70</dim>
					<dim>59</dim>
					<dim>59</dim>
				</port>
			</output>
		</layer>
		<layer id="36" name="/RGB_Network/RGB_Network.2/Conv3DBlock/activation_1/Relu" type="ReLU" version="opset1">
			<input>
				<port id="0" precision="FP32">
					<dim>-1</dim>
					<dim>32</dim>
					<dim>70</dim>
					<dim>59</dim>
					<dim>59</dim>
				</port>
			</input>
			<output>
				<port id="1" precision="FP32" names="/RGB_Network/RGB_Network.2/Conv3DBlock/activation_1/Relu_output_0">
					<dim>-1</dim>
					<dim>32</dim>
					<dim>70</dim>
					<dim>59</dim>
					<dim>59</dim>
				</port>
			</output>
		</layer>
		<layer id="37" name="/RGB_Network/RGB_Network.2/Conv3DBlock/Conv3DBlock.6/MaxPool" type="MaxPool" version="opset8">
			<data strides="1, 2, 2" dilations="1, 1, 1" pads_begin="0, 0, 0" pads_end="0, 0, 0" kernel="1, 2, 2" rounding_type="floor" auto_pad="explicit" index_element_type="i64" axis="0" />
			<input>
				<port id="0" precision="FP32">
					<dim>-1</dim>
					<dim>32</dim>
					<dim>70</dim>
					<dim>59</dim>
					<dim>59</dim>
				</port>
			</input>
			<output>
				<port id="1" precision="FP32" names="/RGB_Network/RGB_Network.2/Conv3DBlock/Conv3DBlock.6/MaxPool_output_0">
					<dim>-1</dim>
					<dim>32</dim>
					<dim>70</dim>
					<dim>29</dim>
					<dim>29</dim>
				</port>
				<port id="2" precision="I64">
					<dim>-1</dim>
					<dim>32</dim>
					<dim>70</dim>
					<dim>29</dim>
					<dim>29</dim>
				</port>
			</output>
		</layer>
		<layer id="38" name="onnx::Conv_254" type="Const" version="opset1">
			<data element_type="f32" shape="32, 32, 1, 3, 3" offset="48368" size="36864" />
			<output>
				<port id="0" precision="FP32" names="onnx::Conv_254">
					<dim>32</dim>
					<dim>32</dim>
					<dim>1</dim>
					<dim>3</dim>
					<dim>3</dim>
				</port>
			</output>
		</layer>
		<layer id="39" name="/RGB_Network/RGB_Network.3/Conv3DBlock/Conv3DBlock.0/Conv/WithoutBiases" type="Convolution" version="opset1">
			<data strides="1, 1, 1" dilations="1, 1, 1" pads_begin="1, 1, 1" pads_end="1, 1, 1" auto_pad="explicit" />
			<input>
				<port id="0" precision="FP32">
					<dim>-1</dim>
					<dim>32</dim>
					<dim>70</dim>
					<dim>29</dim>
					<dim>29</dim>
				</port>
				<port id="1" precision="FP32">
					<dim>32</dim>
					<dim>32</dim>
					<dim>1</dim>
					<dim>3</dim>
					<dim>3</dim>
				</port>
			</input>
			<output>
				<port id="2" precision="FP32">
					<dim>-1</dim>
					<dim>32</dim>
					<dim>72</dim>
					<dim>29</dim>
					<dim>29</dim>
				</port>
			</output>
		</layer>
		<layer id="40" name="Reshape_163" type="Const" version="opset1">
			<data element_type="f32" shape="1, 32, 1, 1, 1" offset="85232" size="128" />
			<output>
				<port id="0" precision="FP32">
					<dim>1</dim>
					<dim>32</dim>
					<dim>1</dim>
					<dim>1</dim>
					<dim>1</dim>
				</port>
			</output>
		</layer>
		<layer id="41" name="/RGB_Network/RGB_Network.3/Conv3DBlock/Conv3DBlock.0/Conv" type="Add" version="opset1">
			<data auto_broadcast="numpy" />
			<input>
				<port id="0" precision="FP32">
					<dim>-1</dim>
					<dim>32</dim>
					<dim>72</dim>
					<dim>29</dim>
					<dim>29</dim>
				</port>
				<port id="1" precision="FP32">
					<dim>1</dim>
					<dim>32</dim>
					<dim>1</dim>
					<dim>1</dim>
					<dim>1</dim>
				</port>
			</input>
			<output>
				<port id="2" precision="FP32" names="/RGB_Network/RGB_Network.3/Conv3DBlock/Conv3DBlock.0/Conv_output_0">
					<dim>-1</dim>
					<dim>32</dim>
					<dim>72</dim>
					<dim>29</dim>
					<dim>29</dim>
				</port>
			</output>
		</layer>
		<layer id="42" name="/RGB_Network/RGB_Network.3/Conv3DBlock/activation/Relu" type="ReLU" version="opset1">
			<input>
				<port id="0" precision="FP32">
					<dim>-1</dim>
					<dim>32</dim>
					<dim>72</dim>
					<dim>29</dim>
					<dim>29</dim>
				</port>
			</input>
			<output>
				<port id="1" precision="FP32" names="/RGB_Network/RGB_Network.3/Conv3DBlock/activation/Relu_output_0">
					<dim>-1</dim>
					<dim>32</dim>
					<dim>72</dim>
					<dim>29</dim>
					<dim>29</dim>
				</port>
			</output>
		</layer>
		<layer id="43" name="onnx::Conv_257" type="Const" version="opset1">
			<data element_type="f32" shape="32, 32, 3, 1, 1" offset="85360" size="12288" />
			<output>
				<port id="0" precision="FP32" names="onnx::Conv_257">
					<dim>32</dim>
					<dim>32</dim>
					<dim>3</dim>
					<dim>1</dim>
					<dim>1</dim>
				</port>
			</output>
		</layer>
		<layer id="44" name="/RGB_Network/RGB_Network.3/Conv3DBlock/Conv3DBlock.3/Conv/WithoutBiases" type="Convolution" version="opset1">
			<data strides="1, 1, 1" dilations="1, 1, 1" pads_begin="1, 1, 1" pads_end="1, 1, 1" auto_pad="explicit" />
			<input>
				<port id="0" precision="FP32">
					<dim>-1</dim>
					<dim>32</dim>
					<dim>72</dim>
					<dim>29</dim>
					<dim>29</dim>
				</port>
				<port id="1" precision="FP32">
					<dim>32</dim>
					<dim>32</dim>
					<dim>3</dim>
					<dim>1</dim>
					<dim>1</dim>
				</port>
			</input>
			<output>
				<port id="2" precision="FP32">
					<dim>-1</dim>
					<dim>32</dim>
					<dim>72</dim>
					<dim>31</dim>
					<dim>31</dim>
				</port>
			</output>
		</layer>
		<layer id="45" name="Reshape_179" type="Const" version="opset1">
			<data element_type="f32" shape="1, 32, 1, 1, 1" offset="97648" size="128" />
			<output>
				<port id="0" precision="FP32">
					<dim>1</dim>
					<dim>32</dim>
					<dim>1</dim>
					<dim>1</dim>
					<dim>1</dim>
				</port>
			</output>
		</layer>
		<layer id="46" name="/RGB_Network/RGB_Network.3/Conv3DBlock/Conv3DBlock.3/Conv" type="Add" version="opset1">
			<data auto_broadcast="numpy" />
			<input>
				<port id="0" precision="FP32">
					<dim>-1</dim>
					<dim>32</dim>
					<dim>72</dim>
					<dim>31</dim>
					<dim>31</dim>
				</port>
				<port id="1" precision="FP32">
					<dim>1</dim>
					<dim>32</dim>
					<dim>1</dim>
					<dim>1</dim>
					<dim>1</dim>
				</port>
			</input>
			<output>
				<port id="2" precision="FP32" names="/RGB_Network/RGB_Network.3/Conv3DBlock/Conv3DBlock.3/Conv_output_0">
					<dim>-1</dim>
					<dim>32</dim>
					<dim>72</dim>
					<dim>31</dim>
					<dim>31</dim>
				</port>
			</output>
		</layer>
		<layer id="47" name="/RGB_Network/RGB_Network.3/Conv3DBlock/activation_1/Relu" type="ReLU" version="opset1">
			<input>
				<port id="0" precision="FP32">
					<dim>-1</dim>
					<dim>32</dim>
					<dim>72</dim>
					<dim>31</dim>
					<dim>31</dim>
				</port>
			</input>
			<output>
				<port id="1" precision="FP32" names="/RGB_Network/RGB_Network.3/Conv3DBlock/activation_1/Relu_output_0">
					<dim>-1</dim>
					<dim>32</dim>
					<dim>72</dim>
					<dim>31</dim>
					<dim>31</dim>
				</port>
			</output>
		</layer>
		<layer id="48" name="/RGB_Network/RGB_Network.3/Conv3DBlock/Conv3DBlock.6/MaxPool" type="MaxPool" version="opset8">
			<data strides="1, 2, 2" dilations="1, 1, 1" pads_begin="0, 0, 0" pads_end="0, 0, 0" kernel="1, 2, 2" rounding_type="floor" auto_pad="explicit" index_element_type="i64" axis="0" />
			<input>
				<port id="0" precision="FP32">
					<dim>-1</dim>
					<dim>32</dim>
					<dim>72</dim>
					<dim>31</dim>
					<dim>31</dim>
				</port>
			</input>
			<output>
				<port id="1" precision="FP32" names="/RGB_Network/RGB_Network.3/Conv3DBlock/Conv3DBlock.6/MaxPool_output_0">
					<dim>-1</dim>
					<dim>32</dim>
					<dim>72</dim>
					<dim>15</dim>
					<dim>15</dim>
				</port>
				<port id="2" precision="I64">
					<dim>-1</dim>
					<dim>32</dim>
					<dim>72</dim>
					<dim>15</dim>
					<dim>15</dim>
				</port>
			</output>
		</layer>
		<layer id="49" name="Constant_2126" type="Const" version="opset1">
			<data element_type="i64" shape="2" offset="16" size="16" />
			<output>
				<port id="0" precision="I64">
					<dim>2</dim>
				</port>
			</output>
		</layer>
		<layer id="50" name="Constant_2129" type="Const" version="opset1">
			<data element_type="i64" shape="2" offset="97776" size="16" />
			<output>
				<port id="0" precision="I64">
					<dim>2</dim>
				</port>
			</output>
		</layer>
		<layer id="51" name="Constant_2132" type="Const" version="opset1">
			<data element_type="i64" shape="2" offset="32" size="16" />
			<output>
				<port id="0" precision="I64">
					<dim>2</dim>
				</port>
			</output>
		</layer>
		<layer id="52" name="/Slice_1" type="StridedSlice" version="opset1">
			<data begin_mask="1, 0" end_mask="1, 0" new_axis_mask="" shrink_axis_mask="" ellipsis_mask="" />
			<input>
				<port id="0" precision="FP32">
					<dim>-1</dim>
					<dim>5</dim>
					<dim>64</dim>
					<dim>224</dim>
					<dim>224</dim>
				</port>
				<port id="1" precision="I64">
					<dim>2</dim>
				</port>
				<port id="2" precision="I64">
					<dim>2</dim>
				</port>
				<port id="3" precision="I64">
					<dim>2</dim>
				</port>
			</input>
			<output>
				<port id="4" precision="FP32" names="/Slice_1_output_0">
					<dim>-1</dim>
					<dim>2</dim>
					<dim>64</dim>
					<dim>224</dim>
					<dim>224</dim>
				</port>
			</output>
		</layer>
		<layer id="53" name="onnx::Conv_260" type="Const" version="opset1">
			<data element_type="f32" shape="16, 2, 1, 3, 3" offset="97792" size="1152" />
			<output>
				<port id="0" precision="FP32" names="onnx::Conv_260">
					<dim>16</dim>
					<dim>2</dim>
					<dim>1</dim>
					<dim>3</dim>
					<dim>3</dim>
				</port>
			</output>
		</layer>
		<layer id="54" name="/OptFlow_Network/OptFlow_Network.0/Conv3DBlock/Conv3DBlock.0/Conv/WithoutBiases" type="Convolution" version="opset1">
			<data strides="1, 1, 1" dilations="1, 1, 1" pads_begin="1, 1, 1" pads_end="1, 1, 1" auto_pad="explicit" />
			<input>
				<port id="0" precision="FP32">
					<dim>-1</dim>
					<dim>2</dim>
					<dim>64</dim>
					<dim>224</dim>
					<dim>224</dim>
				</port>
				<port id="1" precision="FP32">
					<dim>16</dim>
					<dim>2</dim>
					<dim>1</dim>
					<dim>3</dim>
					<dim>3</dim>
				</port>
			</input>
			<output>
				<port id="2" precision="FP32">
					<dim>-1</dim>
					<dim>16</dim>
					<dim>66</dim>
					<dim>224</dim>
					<dim>224</dim>
				</port>
			</output>
		</layer>
		<layer id="55" name="Reshape_201" type="Const" version="opset1">
			<data element_type="f32" shape="1, 16, 1, 1, 1" offset="98944" size="64" />
			<output>
				<port id="0" precision="FP32">
					<dim>1</dim>
					<dim>16</dim>
					<dim>1</dim>
					<dim>1</dim>
					<dim>1</dim>
				</port>
			</output>
		</layer>
		<layer id="56" name="/OptFlow_Network/OptFlow_Network.0/Conv3DBlock/Conv3DBlock.0/Conv" type="Add" version="opset1">
			<data auto_broadcast="numpy" />
			<input>
				<port id="0" precision="FP32">
					<dim>-1</dim>
					<dim>16</dim>
					<dim>66</dim>
					<dim>224</dim>
					<dim>224</dim>
				</port>
				<port id="1" precision="FP32">
					<dim>1</dim>
					<dim>16</dim>
					<dim>1</dim>
					<dim>1</dim>
					<dim>1</dim>
				</port>
			</input>
			<output>
				<port id="2" precision="FP32" names="/OptFlow_Network/OptFlow_Network.0/Conv3DBlock/Conv3DBlock.0/Conv_output_0">
					<dim>-1</dim>
					<dim>16</dim>
					<dim>66</dim>
					<dim>224</dim>
					<dim>224</dim>
				</port>
			</output>
		</layer>
		<layer id="57" name="/OptFlow_Network/OptFlow_Network.0/Conv3DBlock/activation/Relu" type="ReLU" version="opset1">
			<input>
				<port id="0" precision="FP32">
					<dim>-1</dim>
					<dim>16</dim>
					<dim>66</dim>
					<dim>224</dim>
					<dim>224</dim>
				</port>
			</input>
			<output>
				<port id="1" precision="FP32" names="/OptFlow_Network/OptFlow_Network.0/Conv3DBlock/activation/Relu_output_0">
					<dim>-1</dim>
					<dim>16</dim>
					<dim>66</dim>
					<dim>224</dim>
					<dim>224</dim>
				</port>
			</output>
		</layer>
		<layer id="58" name="onnx::Conv_263" type="Const" version="opset1">
			<data element_type="f32" shape="16, 16, 3, 1, 1" offset="99008" size="3072" />
			<output>
				<port id="0" precision="FP32" names="onnx::Conv_263">
					<dim>16</dim>
					<dim>16</dim>
					<dim>3</dim>
					<dim>1</dim>
					<dim>1</dim>
				</port>
			</output>
		</layer>
		<layer id="59" name="/OptFlow_Network/OptFlow_Network.0/Conv3DBlock/Conv3DBlock.3/Conv/WithoutBiases" type="Convolution" version="opset1">
			<data strides="1, 1, 1" dilations="1, 1, 1" pads_begin="1, 1, 1" pads_end="1, 1, 1" auto_pad="explicit" />
			<input>
				<port id="0" precision="FP32">
					<dim>-1</dim>
					<dim>16</dim>
					<dim>66</dim>
					<dim>224</dim>
					<dim>224</dim>
				</port>
				<port id="1" precision="FP32">
					<dim>16</dim>
					<dim>16</dim>
					<dim>3</dim>
					<dim>1</dim>
					<dim>1</dim>
				</port>
			</input>
			<output>
				<port id="2" precision="FP32">
					<dim>-1</dim>
					<dim>16</dim>
					<dim>66</dim>
					<dim>226</dim>
					<dim>226</dim>
				</port>
			</output>
		</layer>
		<layer id="60" name="Reshape_217" type="Const" version="opset1">
			<data element_type="f32" shape="1, 16, 1, 1, 1" offset="102080" size="64" />
			<output>
				<port id="0" precision="FP32">
					<dim>1</dim>
					<dim>16</dim>
					<dim>1</dim>
					<dim>1</dim>
					<dim>1</dim>
				</port>
			</output>
		</layer>
		<layer id="61" name="/OptFlow_Network/OptFlow_Network.0/Conv3DBlock/Conv3DBlock.3/Conv" type="Add" version="opset1">
			<data auto_broadcast="numpy" />
			<input>
				<port id="0" precision="FP32">
					<dim>-1</dim>
					<dim>16</dim>
					<dim>66</dim>
					<dim>226</dim>
					<dim>226</dim>
				</port>
				<port id="1" precision="FP32">
					<dim>1</dim>
					<dim>16</dim>
					<dim>1</dim>
					<dim>1</dim>
					<dim>1</dim>
				</port>
			</input>
			<output>
				<port id="2" precision="FP32" names="/OptFlow_Network/OptFlow_Network.0/Conv3DBlock/Conv3DBlock.3/Conv_output_0">
					<dim>-1</dim>
					<dim>16</dim>
					<dim>66</dim>
					<dim>226</dim>
					<dim>226</dim>
				</port>
			</output>
		</layer>
		<layer id="62" name="/OptFlow_Network/OptFlow_Network.0/Conv3DBlock/activation_1/Relu" type="ReLU" version="opset1">
			<input>
				<port id="0" precision="FP32">
					<dim>-1</dim>
					<dim>16</dim>
					<dim>66</dim>
					<dim>226</dim>
					<dim>226</dim>
				</port>
			</input>
			<output>
				<port id="1" precision="FP32" names="/OptFlow_Network/OptFlow_Network.0/Conv3DBlock/activation_1/Relu_output_0">
					<dim>-1</dim>
					<dim>16</dim>
					<dim>66</dim>
					<dim>226</dim>
					<dim>226</dim>
				</port>
			</output>
		</layer>
		<layer id="63" name="/OptFlow_Network/OptFlow_Network.0/Conv3DBlock/Conv3DBlock.6/MaxPool" type="MaxPool" version="opset8">
			<data strides="1, 2, 2" dilations="1, 1, 1" pads_begin="0, 0, 0" pads_end="0, 0, 0" kernel="1, 2, 2" rounding_type="floor" auto_pad="explicit" index_element_type="i64" axis="0" />
			<input>
				<port id="0" precision="FP32">
					<dim>-1</dim>
					<dim>16</dim>
					<dim>66</dim>
					<dim>226</dim>
					<dim>226</dim>
				</port>
			</input>
			<output>
				<port id="1" precision="FP32" names="/OptFlow_Network/OptFlow_Network.0/Conv3DBlock/Conv3DBlock.6/MaxPool_output_0">
					<dim>-1</dim>
					<dim>16</dim>
					<dim>66</dim>
					<dim>113</dim>
					<dim>113</dim>
				</port>
				<port id="2" precision="I64">
					<dim>-1</dim>
					<dim>16</dim>
					<dim>66</dim>
					<dim>113</dim>
					<dim>113</dim>
				</port>
			</output>
		</layer>
		<layer id="64" name="onnx::Conv_266" type="Const" version="opset1">
			<data element_type="f32" shape="16, 16, 1, 3, 3" offset="102144" size="9216" />
			<output>
				<port id="0" precision="FP32" names="onnx::Conv_266">
					<dim>16</dim>
					<dim>16</dim>
					<dim>1</dim>
					<dim>3</dim>
					<dim>3</dim>
				</port>
			</output>
		</layer>
		<layer id="65" name="/OptFlow_Network/OptFlow_Network.1/Conv3DBlock/Conv3DBlock.0/Conv/WithoutBiases" type="Convolution" version="opset1">
			<data strides="1, 1, 1" dilations="1, 1, 1" pads_begin="1, 1, 1" pads_end="1, 1, 1" auto_pad="explicit" />
			<input>
				<port id="0" precision="FP32">
					<dim>-1</dim>
					<dim>16</dim>
					<dim>66</dim>
					<dim>113</dim>
					<dim>113</dim>
				</port>
				<port id="1" precision="FP32">
					<dim>16</dim>
					<dim>16</dim>
					<dim>1</dim>
					<dim>3</dim>
					<dim>3</dim>
				</port>
			</input>
			<output>
				<port id="2" precision="FP32">
					<dim>-1</dim>
					<dim>16</dim>
					<dim>68</dim>
					<dim>113</dim>
					<dim>113</dim>
				</port>
			</output>
		</layer>
		<layer id="66" name="Reshape_234" type="Const" version="opset1">
			<data element_type="f32" shape="1, 16, 1, 1, 1" offset="111360" size="64" />
			<output>
				<port id="0" precision="FP32">
					<dim>1</dim>
					<dim>16</dim>
					<dim>1</dim>
					<dim>1</dim>
					<dim>1</dim>
				</port>
			</output>
		</layer>
		<layer id="67" name="/OptFlow_Network/OptFlow_Network.1/Conv3DBlock/Conv3DBlock.0/Conv" type="Add" version="opset1">
			<data auto_broadcast="numpy" />
			<input>
				<port id="0" precision="FP32">
					<dim>-1</dim>
					<dim>16</dim>
					<dim>68</dim>
					<dim>113</dim>
					<dim>113</dim>
				</port>
				<port id="1" precision="FP32">
					<dim>1</dim>
					<dim>16</dim>
					<dim>1</dim>
					<dim>1</dim>
					<dim>1</dim>
				</port>
			</input>
			<output>
				<port id="2" precision="FP32" names="/OptFlow_Network/OptFlow_Network.1/Conv3DBlock/Conv3DBlock.0/Conv_output_0">
					<dim>-1</dim>
					<dim>16</dim>
					<dim>68</dim>
					<dim>113</dim>
					<dim>113</dim>
				</port>
			</output>
		</layer>
		<layer id="68" name="/OptFlow_Network/OptFlow_Network.1/Conv3DBlock/activation/Relu" type="ReLU" version="opset1">
			<input>
				<port id="0" precision="FP32">
					<dim>-1</dim>
					<dim>16</dim>
					<dim>68</dim>
					<dim>113</dim>
					<dim>113</dim>
				</port>
			</input>
			<output>
				<port id="1" precision="FP32" names="/OptFlow_Network/OptFlow_Network.1/Conv3DBlock/activation/Relu_output_0">
					<dim>-1</dim>
					<dim>16</dim>
					<dim>68</dim>
					<dim>113</dim>
					<dim>113</dim>
				</port>
			</output>
		</layer>
		<layer id="69" name="onnx::Conv_269" type="Const" version="opset1">
			<data element_type="f32" shape="16, 16, 3, 1, 1" offset="111424" size="3072" />
			<output>
				<port id="0" precision="FP32" names="onnx::Conv_269">
					<dim>16</dim>
					<dim>16</dim>
					<dim>3</dim>
					<dim>1</dim>
					<dim>1</dim>
				</port>
			</output>
		</layer>
		<layer id="70" name="/OptFlow_Network/OptFlow_Network.1/Conv3DBlock/Conv3DBlock.3/Conv/WithoutBiases" type="Convolution" version="opset1">
			<data strides="1, 1, 1" dilations="1, 1, 1" pads_begin="1, 1, 1" pads_end="1, 1, 1" auto_pad="explicit" />
			<input>
				<port id="0" precision="FP32">
					<dim>-1</dim>
					<dim>16</dim>
					<dim>68</dim>
					<dim>113</dim>
					<dim>113</dim>
				</port>
				<port id="1" precision="FP32">
					<dim>16</dim>
					<dim>16</dim>
					<dim>3</dim>
					<dim>1</dim>
					<dim>1</dim>
				</port>
			</input>
			<output>
				<port id="2" precision="FP32">
					<dim>-1</dim>
					<dim>16</dim>
					<dim>68</dim>
					<dim>115</dim>
					<dim>115</dim>
				</port>
			</output>
		</layer>
		<layer id="71" name="Reshape_250" type="Const" version="opset1">
			<data element_type="f32" shape="1, 16, 1, 1, 1" offset="114496" size="64" />
			<output>
				<port id="0" precision="FP32">
					<dim>1</dim>
					<dim>16</dim>
					<dim>1</dim>
					<dim>1</dim>
					<dim>1</dim>
				</port>
			</output>
		</layer>
		<layer id="72" name="/OptFlow_Network/OptFlow_Network.1/Conv3DBlock/Conv3DBlock.3/Conv" type="Add" version="opset1">
			<data auto_broadcast="numpy" />
			<input>
				<port id="0" precision="FP32">
					<dim>-1</dim>
					<dim>16</dim>
					<dim>68</dim>
					<dim>115</dim>
					<dim>115</dim>
				</port>
				<port id="1" precision="FP32">
					<dim>1</dim>
					<dim>16</dim>
					<dim>1</dim>
					<dim>1</dim>
					<dim>1</dim>
				</port>
			</input>
			<output>
				<port id="2" precision="FP32" names="/OptFlow_Network/OptFlow_Network.1/Conv3DBlock/Conv3DBlock.3/Conv_output_0">
					<dim>-1</dim>
					<dim>16</dim>
					<dim>68</dim>
					<dim>115</dim>
					<dim>115</dim>
				</port>
			</output>
		</layer>
		<layer id="73" name="/OptFlow_Network/OptFlow_Network.1/Conv3DBlock/activation_1/Relu" type="ReLU" version="opset1">
			<input>
				<port id="0" precision="FP32">
					<dim>-1</dim>
					<dim>16</dim>
					<dim>68</dim>
					<dim>115</dim>
					<dim>115</dim>
				</port>
			</input>
			<output>
				<port id="1" precision="FP32" names="/OptFlow_Network/OptFlow_Network.1/Conv3DBlock/activation_1/Relu_output_0">
					<dim>-1</dim>
					<dim>16</dim>
					<dim>68</dim>
					<dim>115</dim>
					<dim>115</dim>
				</port>
			</output>
		</layer>
		<layer id="74" name="/OptFlow_Network/OptFlow_Network.1/Conv3DBlock/Conv3DBlock.6/MaxPool" type="MaxPool" version="opset8">
			<data strides="1, 2, 2" dilations="1, 1, 1" pads_begin="0, 0, 0" pads_end="0, 0, 0" kernel="1, 2, 2" rounding_type="floor" auto_pad="explicit" index_element_type="i64" axis="0" />
			<input>
				<port id="0" precision="FP32">
					<dim>-1</dim>
					<dim>16</dim>
					<dim>68</dim>
					<dim>115</dim>
					<dim>115</dim>
				</port>
			</input>
			<output>
				<port id="1" precision="FP32" names="/OptFlow_Network/OptFlow_Network.1/Conv3DBlock/Conv3DBlock.6/MaxPool_output_0">
					<dim>-1</dim>
					<dim>16</dim>
					<dim>68</dim>
					<dim>57</dim>
					<dim>57</dim>
				</port>
				<port id="2" precision="I64">
					<dim>-1</dim>
					<dim>16</dim>
					<dim>68</dim>
					<dim>57</dim>
					<dim>57</dim>
				</port>
			</output>
		</layer>
		<layer id="75" name="onnx::Conv_272" type="Const" version="opset1">
			<data element_type="f32" shape="32, 16, 1, 3, 3" offset="114560" size="18432" />
			<output>
				<port id="0" precision="FP32" names="onnx::Conv_272">
					<dim>32</dim>
					<dim>16</dim>
					<dim>1</dim>
					<dim>3</dim>
					<dim>3</dim>
				</port>
			</output>
		</layer>
		<layer id="76" name="/OptFlow_Network/OptFlow_Network.2/Conv3DBlock/Conv3DBlock.0/Conv/WithoutBiases" type="Convolution" version="opset1">
			<data strides="1, 1, 1" dilations="1, 1, 1" pads_begin="1, 1, 1" pads_end="1, 1, 1" auto_pad="explicit" />
			<input>
				<port id="0" precision="FP32">
					<dim>-1</dim>
					<dim>16</dim>
					<dim>68</dim>
					<dim>57</dim>
					<dim>57</dim>
				</port>
				<port id="1" precision="FP32">
					<dim>32</dim>
					<dim>16</dim>
					<dim>1</dim>
					<dim>3</dim>
					<dim>3</dim>
				</port>
			</input>
			<output>
				<port id="2" precision="FP32">
					<dim>-1</dim>
					<dim>32</dim>
					<dim>70</dim>
					<dim>57</dim>
					<dim>57</dim>
				</port>
			</output>
		</layer>
		<layer id="77" name="Reshape_267" type="Const" version="opset1">
			<data element_type="f32" shape="1, 32, 1, 1, 1" offset="132992" size="128" />
			<output>
				<port id="0" precision="FP32">
					<dim>1</dim>
					<dim>32</dim>
					<dim>1</dim>
					<dim>1</dim>
					<dim>1</dim>
				</port>
			</output>
		</layer>
		<layer id="78" name="/OptFlow_Network/OptFlow_Network.2/Conv3DBlock/Conv3DBlock.0/Conv" type="Add" version="opset1">
			<data auto_broadcast="numpy" />
			<input>
				<port id="0" precision="FP32">
					<dim>-1</dim>
					<dim>32</dim>
					<dim>70</dim>
					<dim>57</dim>
					<dim>57</dim>
				</port>
				<port id="1" precision="FP32">
					<dim>1</dim>
					<dim>32</dim>
					<dim>1</dim>
					<dim>1</dim>
					<dim>1</dim>
				</port>
			</input>
			<output>
				<port id="2" precision="FP32" names="/OptFlow_Network/OptFlow_Network.2/Conv3DBlock/Conv3DBlock.0/Conv_output_0">
					<dim>-1</dim>
					<dim>32</dim>
					<dim>70</dim>
					<dim>57</dim>
					<dim>57</dim>
				</port>
			</output>
		</layer>
		<layer id="79" name="/OptFlow_Network/OptFlow_Network.2/Conv3DBlock/activation/Relu" type="ReLU" version="opset1">
			<input>
				<port id="0" precision="FP32">
					<dim>-1</dim>
					<dim>32</dim>
					<dim>70</dim>
					<dim>57</dim>
					<dim>57</dim>
				</port>
			</input>
			<output>
				<port id="1" precision="FP32" names="/OptFlow_Network/OptFlow_Network.2/Conv3DBlock/activation/Relu_output_0">
					<dim>-1</dim>
					<dim>32</dim>
					<dim>70</dim>
					<dim>57</dim>
					<dim>57</dim>
				</port>
			</output>
		</layer>
		<layer id="80" name="onnx::Conv_275" type="Const" version="opset1">
			<data element_type="f32" shape="32, 32, 3, 1, 1" offset="133120" size="12288" />
			<output>
				<port id="0" precision="FP32" names="onnx::Conv_275">
					<dim>32</dim>
					<dim>32</dim>
					<dim>3</dim>
					<dim>1</dim>
					<dim>1</dim>
				</port>
			</output>
		</layer>
		<layer id="81" name="/OptFlow_Network/OptFlow_Network.2/Conv3DBlock/Conv3DBlock.3/Conv/WithoutBiases" type="Convolution" version="opset1">
			<data strides="1, 1, 1" dilations="1, 1, 1" pads_begin="1, 1, 1" pads_end="1, 1, 1" auto_pad="explicit" />
			<input>
				<port id="0" precision="FP32">
					<dim>-1</dim>
					<dim>32</dim>
					<dim>70</dim>
					<dim>57</dim>
					<dim>57</dim>
				</port>
				<port id="1" precision="FP32">
					<dim>32</dim>
					<dim>32</dim>
					<dim>3</dim>
					<dim>1</dim>
					<dim>1</dim>
				</port>
			</input>
			<output>
				<port id="2" precision="FP32">
					<dim>-1</dim>
					<dim>32</dim>
					<dim>70</dim>
					<dim>59</dim>
					<dim>59</dim>
				</port>
			</output>
		</layer>
		<layer id="82" name="Reshape_283" type="Const" version="opset1">
			<data element_type="f32" shape="1, 32, 1, 1, 1" offset="145408" size="128" />
			<output>
				<port id="0" precision="FP32">
					<dim>1</dim>
					<dim>32</dim>
					<dim>1</dim>
					<dim>1</dim>
					<dim>1</dim>
				</port>
			</output>
		</layer>
		<layer id="83" name="/OptFlow_Network/OptFlow_Network.2/Conv3DBlock/Conv3DBlock.3/Conv" type="Add" version="opset1">
			<data auto_broadcast="numpy" />
			<input>
				<port id="0" precision="FP32">
					<dim>-1</dim>
					<dim>32</dim>
					<dim>70</dim>
					<dim>59</dim>
					<dim>59</dim>
				</port>
				<port id="1" precision="FP32">
					<dim>1</dim>
					<dim>32</dim>
					<dim>1</dim>
					<dim>1</dim>
					<dim>1</dim>
				</port>
			</input>
			<output>
				<port id="2" precision="FP32" names="/OptFlow_Network/OptFlow_Network.2/Conv3DBlock/Conv3DBlock.3/Conv_output_0">
					<dim>-1</dim>
					<dim>32</dim>
					<dim>70</dim>
					<dim>59</dim>
					<dim>59</dim>
				</port>
			</output>
		</layer>
		<layer id="84" name="/OptFlow_Network/OptFlow_Network.2/Conv3DBlock/activation_1/Relu" type="ReLU" version="opset1">
			<input>
				<port id="0" precision="FP32">
					<dim>-1</dim>
					<dim>32</dim>
					<dim>70</dim>
					<dim>59</dim>
					<dim>59</dim>
				</port>
			</input>
			<output>
				<port id="1" precision="FP32" names="/OptFlow_Network/OptFlow_Network.2/Conv3DBlock/activation_1/Relu_output_0">
					<dim>-1</dim>
					<dim>32</dim>
					<dim>70</dim>
					<dim>59</dim>
					<dim>59</dim>
				</port>
			</output>
		</layer>
		<layer id="85" name="/OptFlow_Network/OptFlow_Network.2/Conv3DBlock/Conv3DBlock.6/MaxPool" type="MaxPool" version="opset8">
			<data strides="1, 2, 2" dilations="1, 1, 1" pads_begin="0, 0, 0" pads_end="0, 0, 0" kernel="1, 2, 2" rounding_type="floor" auto_pad="explicit" index_element_type="i64" axis="0" />
			<input>
				<port id="0" precision="FP32">
					<dim>-1</dim>
					<dim>32</dim>
					<dim>70</dim>
					<dim>59</dim>
					<dim>59</dim>
				</port>
			</input>
			<output>
				<port id="1" precision="FP32" names="/OptFlow_Network/OptFlow_Network.2/Conv3DBlock/Conv3DBlock.6/MaxPool_output_0">
					<dim>-1</dim>
					<dim>32</dim>
					<dim>70</dim>
					<dim>29</dim>
					<dim>29</dim>
				</port>
				<port id="2" precision="I64">
					<dim>-1</dim>
					<dim>32</dim>
					<dim>70</dim>
					<dim>29</dim>
					<dim>29</dim>
				</port>
			</output>
		</layer>
		<layer id="86" name="onnx::Conv_278" type="Const" version="opset1">
			<data element_type="f32" shape="32, 32, 1, 3, 3" offset="145536" size="36864" />
			<output>
				<port id="0" precision="FP32" names="onnx::Conv_278">
					<dim>32</dim>
					<dim>32</dim>
					<dim>1</dim>
					<dim>3</dim>
					<dim>3</dim>
				</port>
			</output>
		</layer>
		<layer id="87" name="/OptFlow_Network/OptFlow_Network.3/Conv3DBlock/Conv3DBlock.0/Conv/WithoutBiases" type="Convolution" version="opset1">
			<data strides="1, 1, 1" dilations="1, 1, 1" pads_begin="1, 1, 1" pads_end="1, 1, 1" auto_pad="explicit" />
			<input>
				<port id="0" precision="FP32">
					<dim>-1</dim>
					<dim>32</dim>
					<dim>70</dim>
					<dim>29</dim>
					<dim>29</dim>
				</port>
				<port id="1" precision="FP32">
					<dim>32</dim>
					<dim>32</dim>
					<dim>1</dim>
					<dim>3</dim>
					<dim>3</dim>
				</port>
			</input>
			<output>
				<port id="2" precision="FP32">
					<dim>-1</dim>
					<dim>32</dim>
					<dim>72</dim>
					<dim>29</dim>
					<dim>29</dim>
				</port>
			</output>
		</layer>
		<layer id="88" name="Reshape_300" type="Const" version="opset1">
			<data element_type="f32" shape="1, 32, 1, 1, 1" offset="182400" size="128" />
			<output>
				<port id="0" precision="FP32">
					<dim>1</dim>
					<dim>32</dim>
					<dim>1</dim>
					<dim>1</dim>
					<dim>1</dim>
				</port>
			</output>
		</layer>
		<layer id="89" name="/OptFlow_Network/OptFlow_Network.3/Conv3DBlock/Conv3DBlock.0/Conv" type="Add" version="opset1">
			<data auto_broadcast="numpy" />
			<input>
				<port id="0" precision="FP32">
					<dim>-1</dim>
					<dim>32</dim>
					<dim>72</dim>
					<dim>29</dim>
					<dim>29</dim>
				</port>
				<port id="1" precision="FP32">
					<dim>1</dim>
					<dim>32</dim>
					<dim>1</dim>
					<dim>1</dim>
					<dim>1</dim>
				</port>
			</input>
			<output>
				<port id="2" precision="FP32" names="/OptFlow_Network/OptFlow_Network.3/Conv3DBlock/Conv3DBlock.0/Conv_output_0">
					<dim>-1</dim>
					<dim>32</dim>
					<dim>72</dim>
					<dim>29</dim>
					<dim>29</dim>
				</port>
			</output>
		</layer>
		<layer id="90" name="/OptFlow_Network/OptFlow_Network.3/Conv3DBlock/activation/Sigmoid" type="Sigmoid" version="opset1">
			<input>
				<port id="0" precision="FP32">
					<dim>-1</dim>
					<dim>32</dim>
					<dim>72</dim>
					<dim>29</dim>
					<dim>29</dim>
				</port>
			</input>
			<output>
				<port id="1" precision="FP32" names="/OptFlow_Network/OptFlow_Network.3/Conv3DBlock/activation/Sigmoid_output_0">
					<dim>-1</dim>
					<dim>32</dim>
					<dim>72</dim>
					<dim>29</dim>
					<dim>29</dim>
				</port>
			</output>
		</layer>
		<layer id="91" name="onnx::Conv_281" type="Const" version="opset1">
			<data element_type="f32" shape="32, 32, 3, 1, 1" offset="182528" size="12288" />
			<output>
				<port id="0" precision="FP32" names="onnx::Conv_281">
					<dim>32</dim>
					<dim>32</dim>
					<dim>3</dim>
					<dim>1</dim>
					<dim>1</dim>
				</port>
			</output>
		</layer>
		<layer id="92" name="/OptFlow_Network/OptFlow_Network.3/Conv3DBlock/Conv3DBlock.3/Conv/WithoutBiases" type="Convolution" version="opset1">
			<data strides="1, 1, 1" dilations="1, 1, 1" pads_begin="1, 1, 1" pads_end="1, 1, 1" auto_pad="explicit" />
			<input>
				<port id="0" precision="FP32">
					<dim>-1</dim>
					<dim>32</dim>
					<dim>72</dim>
					<dim>29</dim>
					<dim>29</dim>
				</port>
				<port id="1" precision="FP32">
					<dim>32</dim>
					<dim>32</dim>
					<dim>3</dim>
					<dim>1</dim>
					<dim>1</dim>
				</port>
			</input>
			<output>
				<port id="2" precision="FP32">
					<dim>-1</dim>
					<dim>32</dim>
					<dim>72</dim>
					<dim>31</dim>
					<dim>31</dim>
				</port>
			</output>
		</layer>
		<layer id="93" name="Reshape_316" type="Const" version="opset1">
			<data element_type="f32" shape="1, 32, 1, 1, 1" offset="194816" size="128" />
			<output>
				<port id="0" precision="FP32">
					<dim>1</dim>
					<dim>32</dim>
					<dim>1</dim>
					<dim>1</dim>
					<dim>1</dim>
				</port>
			</output>
		</layer>
		<layer id="94" name="/OptFlow_Network/OptFlow_Network.3/Conv3DBlock/Conv3DBlock.3/Conv" type="Add" version="opset1">
			<data auto_broadcast="numpy" />
			<input>
				<port id="0" precision="FP32">
					<dim>-1</dim>
					<dim>32</dim>
					<dim>72</dim>
					<dim>31</dim>
					<dim>31</dim>
				</port>
				<port id="1" precision="FP32">
					<dim>1</dim>
					<dim>32</dim>
					<dim>1</dim>
					<dim>1</dim>
					<dim>1</dim>
				</port>
			</input>
			<output>
				<port id="2" precision="FP32" names="/OptFlow_Network/OptFlow_Network.3/Conv3DBlock/Conv3DBlock.3/Conv_output_0">
					<dim>-1</dim>
					<dim>32</dim>
					<dim>72</dim>
					<dim>31</dim>
					<dim>31</dim>
				</port>
			</output>
		</layer>
		<layer id="95" name="/OptFlow_Network/OptFlow_Network.3/Conv3DBlock/activation_1/Sigmoid" type="Sigmoid" version="opset1">
			<input>
				<port id="0" precision="FP32">
					<dim>-1</dim>
					<dim>32</dim>
					<dim>72</dim>
					<dim>31</dim>
					<dim>31</dim>
				</port>
			</input>
			<output>
				<port id="1" precision="FP32" names="/OptFlow_Network/OptFlow_Network.3/Conv3DBlock/activation_1/Sigmoid_output_0">
					<dim>-1</dim>
					<dim>32</dim>
					<dim>72</dim>
					<dim>31</dim>
					<dim>31</dim>
				</port>
			</output>
		</layer>
		<layer id="96" name="/OptFlow_Network/OptFlow_Network.3/Conv3DBlock/Conv3DBlock.6/MaxPool" type="MaxPool" version="opset8">
			<data strides="1, 2, 2" dilations="1, 1, 1" pads_begin="0, 0, 0" pads_end="0, 0, 0" kernel="1, 2, 2" rounding_type="floor" auto_pad="explicit" index_element_type="i64" axis="0" />
			<input>
				<port id="0" precision="FP32">
					<dim>-1</dim>
					<dim>32</dim>
					<dim>72</dim>
					<dim>31</dim>
					<dim>31</dim>
				</port>
			</input>
			<output>
				<port id="1" precision="FP32" names="/OptFlow_Network/OptFlow_Network.3/Conv3DBlock/Conv3DBlock.6/MaxPool_output_0">
					<dim>-1</dim>
					<dim>32</dim>
					<dim>72</dim>
					<dim>15</dim>
					<dim>15</dim>
				</port>
				<port id="2" precision="I64">
					<dim>-1</dim>
					<dim>32</dim>
					<dim>72</dim>
					<dim>15</dim>
					<dim>15</dim>
				</port>
			</output>
		</layer>
		<layer id="97" name="/Mul" type="Multiply" version="opset1">
			<data auto_broadcast="numpy" />
			<input>
				<port id="0" precision="FP32">
					<dim>-1</dim>
					<dim>32</dim>
					<dim>72</dim>
					<dim>15</dim>
					<dim>15</dim>
				</port>
				<port id="1" precision="FP32">
					<dim>-1</dim>
					<dim>32</dim>
					<dim>72</dim>
					<dim>15</dim>
					<dim>15</dim>
				</port>
			</input>
			<output>
				<port id="2" precision="FP32" names="/Mul_output_0">
					<dim>-1</dim>
					<dim>32</dim>
					<dim>72</dim>
					<dim>15</dim>
					<dim>15</dim>
				</port>
			</output>
		</layer>
		<layer id="98" name="/MaxPool/MaxPool" type="MaxPool" version="opset8">
			<data strides="8, 1, 1" dilations="1, 1, 1" pads_begin="0, 0, 0" pads_end="0, 0, 0" kernel="8, 1, 1" rounding_type="floor" auto_pad="explicit" index_element_type="i64" axis="0" />
			<input>
				<port id="0" precision="FP32">
					<dim>-1</dim>
					<dim>32</dim>
					<dim>72</dim>
					<dim>15</dim>
					<dim>15</dim>
				</port>
			</input>
			<output>
				<port id="1" precision="FP32" names="/MaxPool/MaxPool_output_0">
					<dim>-1</dim>
					<dim>32</dim>
					<dim>9</dim>
					<dim>15</dim>
					<dim>15</dim>
				</port>
				<port id="2" precision="I64">
					<dim>-1</dim>
					<dim>32</dim>
					<dim>9</dim>
					<dim>15</dim>
					<dim>15</dim>
				</port>
			</output>
		</layer>
		<layer id="99" name="onnx::Conv_284" type="Const" version="opset1">
			<data element_type="f32" shape="64, 32, 1, 3, 3" offset="194944" size="73728" />
			<output>
				<port id="0" precision="FP32" names="onnx::Conv_284">
					<dim>64</dim>
					<dim>32</dim>
					<dim>1</dim>
					<dim>3</dim>
					<dim>3</dim>
				</port>
			</output>
		</layer>
		<layer id="100" name="/Merging/Merging.0/Conv3DBlock/Conv3DBlock.0/Conv/WithoutBiases" type="Convolution" version="opset1">
			<data strides="1, 1, 1" dilations="1, 1, 1" pads_begin="1, 1, 1" pads_end="1, 1, 1" auto_pad="explicit" />
			<input>
				<port id="0" precision="FP32">
					<dim>-1</dim>
					<dim>32</dim>
					<dim>9</dim>
					<dim>15</dim>
					<dim>15</dim>
				</port>
				<port id="1" precision="FP32">
					<dim>64</dim>
					<dim>32</dim>
					<dim>1</dim>
					<dim>3</dim>
					<dim>3</dim>
				</port>
			</input>
			<output>
				<port id="2" precision="FP32">
					<dim>-1</dim>
					<dim>64</dim>
					<dim>11</dim>
					<dim>15</dim>
					<dim>15</dim>
				</port>
			</output>
		</layer>
		<layer id="101" name="Reshape_335" type="Const" version="opset1">
			<data element_type="f32" shape="1, 64, 1, 1, 1" offset="268672" size="256" />
			<output>
				<port id="0" precision="FP32">
					<dim>1</dim>
					<dim>64</dim>
					<dim>1</dim>
					<dim>1</dim>
					<dim>1</dim>
				</port>
			</output>
		</layer>
		<layer id="102" name="/Merging/Merging.0/Conv3DBlock/Conv3DBlock.0/Conv" type="Add" version="opset1">
			<data auto_broadcast="numpy" />
			<input>
				<port id="0" precision="FP32">
					<dim>-1</dim>
					<dim>64</dim>
					<dim>11</dim>
					<dim>15</dim>
					<dim>15</dim>
				</port>
				<port id="1" precision="FP32">
					<dim>1</dim>
					<dim>64</dim>
					<dim>1</dim>
					<dim>1</dim>
					<dim>1</dim>
				</port>
			</input>
			<output>
				<port id="2" precision="FP32" names="/Merging/Merging.0/Conv3DBlock/Conv3DBlock.0/Conv_output_0">
					<dim>-1</dim>
					<dim>64</dim>
					<dim>11</dim>
					<dim>15</dim>
					<dim>15</dim>
				</port>
			</output>
		</layer>
		<layer id="103" name="/Merging/Merging.0/Conv3DBlock/activation/Relu" type="ReLU" version="opset1">
			<input>
				<port id="0" precision="FP32">
					<dim>-1</dim>
					<dim>64</dim>
					<dim>11</dim>
					<dim>15</dim>
					<dim>15</dim>
				</port>
			</input>
			<output>
				<port id="1" precision="FP32" names="/Merging/Merging.0/Conv3DBlock/activation/Relu_output_0">
					<dim>-1</dim>
					<dim>64</dim>
					<dim>11</dim>
					<dim>15</dim>
					<dim>15</dim>
				</port>
			</output>
		</layer>
		<layer id="104" name="onnx::Conv_287" type="Const" version="opset1">
			<data element_type="f32" shape="64, 64, 3, 1, 1" offset="268928" size="49152" />
			<output>
				<port id="0" precision="FP32" names="onnx::Conv_287">
					<dim>64</dim>
					<dim>64</dim>
					<dim>3</dim>
					<dim>1</dim>
					<dim>1</dim>
				</port>
			</output>
		</layer>
		<layer id="105" name="/Merging/Merging.0/Conv3DBlock/Conv3DBlock.3/Conv/WithoutBiases" type="Convolution" version="opset1">
			<data strides="1, 1, 1" dilations="1, 1, 1" pads_begin="1, 1, 1" pads_end="1, 1, 1" auto_pad="explicit" />
			<input>
				<port id="0" precision="FP32">
					<dim>-1</dim>
					<dim>64</dim>
					<dim>11</dim>
					<dim>15</dim>
					<dim>15</dim>
				</port>
				<port id="1" precision="FP32">
					<dim>64</dim>
					<dim>64</dim>
					<dim>3</dim>
					<dim>1</dim>
					<dim>1</dim>
				</port>
			</input>
			<output>
				<port id="2" precision="FP32">
					<dim>-1</dim>
					<dim>64</dim>
					<dim>11</dim>
					<dim>17</dim>
					<dim>17</dim>
				</port>
			</output>
		</layer>
		<layer id="106" name="Reshape_351" type="Const" version="opset1">
			<data element_type="f32" shape="1, 64, 1, 1, 1" offset="318080" size="256" />
			<output>
				<port id="0" precision="FP32">
					<dim>1</dim>
					<dim>64</dim>
					<dim>1</dim>
					<dim>1</dim>
					<dim>1</dim>
				</port>
			</output>
		</layer>
		<layer id="107" name="/Merging/Merging.0/Conv3DBlock/Conv3DBlock.3/Conv" type="Add" version="opset1">
			<data auto_broadcast="numpy" />
			<input>
				<port id="0" precision="FP32">
					<dim>-1</dim>
					<dim>64</dim>
					<dim>11</dim>
					<dim>17</dim>
					<dim>17</dim>
				</port>
				<port id="1" precision="FP32">
					<dim>1</dim>
					<dim>64</dim>
					<dim>1</dim>
					<dim>1</dim>
					<dim>1</dim>
				</port>
			</input>
			<output>
				<port id="2" precision="FP32" names="/Merging/Merging.0/Conv3DBlock/Conv3DBlock.3/Conv_output_0">
					<dim>-1</dim>
					<dim>64</dim>
					<dim>11</dim>
					<dim>17</dim>
					<dim>17</dim>
				</port>
			</output>
		</layer>
		<layer id="108" name="/Merging/Merging.0/Conv3DBlock/activation_1/Relu" type="ReLU" version="opset1">
			<input>
				<port id="0" precision="FP32">
					<dim>-1</dim>
					<dim>64</dim>
					<dim>11</dim>
					<dim>17</dim>
					<dim>17</dim>
				</port>
			</input>
			<output>
				<port id="1" precision="FP32" names="/Merging/Merging.0/Conv3DBlock/activation_1/Relu_output_0">
					<dim>-1</dim>
					<dim>64</dim>
					<dim>11</dim>
					<dim>17</dim>
					<dim>17</dim>
				</port>
			</output>
		</layer>
		<layer id="109" name="/Merging/Merging.0/Conv3DBlock/Conv3DBlock.6/MaxPool" type="MaxPool" version="opset8">
			<data strides="2, 1, 1" dilations="1, 1, 1" pads_begin="0, 0, 0" pads_end="0, 0, 0" kernel="2, 1, 1" rounding_type="floor" auto_pad="explicit" index_element_type="i64" axis="0" />
			<input>
				<port id="0" precision="FP32">
					<dim>-1</dim>
					<dim>64</dim>
					<dim>11</dim>
					<dim>17</dim>
					<dim>17</dim>
				</port>
			</input>
			<output>
				<port id="1" precision="FP32" names="/Merging/Merging.0/Conv3DBlock/Conv3DBlock.6/MaxPool_output_0">
					<dim>-1</dim>
					<dim>64</dim>
					<dim>5</dim>
					<dim>17</dim>
					<dim>17</dim>
				</port>
				<port id="2" precision="I64">
					<dim>-1</dim>
					<dim>64</dim>
					<dim>5</dim>
					<dim>17</dim>
					<dim>17</dim>
				</port>
			</output>
		</layer>
		<layer id="110" name="onnx::Conv_290" type="Const" version="opset1">
			<data element_type="f32" shape="64, 64, 1, 3, 3" offset="318336" size="147456" />
			<output>
				<port id="0" precision="FP32" names="onnx::Conv_290">
					<dim>64</dim>
					<dim>64</dim>
					<dim>1</dim>
					<dim>3</dim>
					<dim>3</dim>
				</port>
			</output>
		</layer>
		<layer id="111" name="/Merging/Merging.1/Conv3DBlock/Conv3DBlock.0/Conv/WithoutBiases" type="Convolution" version="opset1">
			<data strides="1, 1, 1" dilations="1, 1, 1" pads_begin="1, 1, 1" pads_end="1, 1, 1" auto_pad="explicit" />
			<input>
				<port id="0" precision="FP32">
					<dim>-1</dim>
					<dim>64</dim>
					<dim>5</dim>
					<dim>17</dim>
					<dim>17</dim>
				</port>
				<port id="1" precision="FP32">
					<dim>64</dim>
					<dim>64</dim>
					<dim>1</dim>
					<dim>3</dim>
					<dim>3</dim>
				</port>
			</input>
			<output>
				<port id="2" precision="FP32">
					<dim>-1</dim>
					<dim>64</dim>
					<dim>7</dim>
					<dim>17</dim>
					<dim>17</dim>
				</port>
			</output>
		</layer>
		<layer id="112" name="Reshape_368" type="Const" version="opset1">
			<data element_type="f32" shape="1, 64, 1, 1, 1" offset="465792" size="256" />
			<output>
				<port id="0" precision="FP32">
					<dim>1</dim>
					<dim>64</dim>
					<dim>1</dim>
					<dim>1</dim>
					<dim>1</dim>
				</port>
			</output>
		</layer>
		<layer id="113" name="/Merging/Merging.1/Conv3DBlock/Conv3DBlock.0/Conv" type="Add" version="opset1">
			<data auto_broadcast="numpy" />
			<input>
				<port id="0" precision="FP32">
					<dim>-1</dim>
					<dim>64</dim>
					<dim>7</dim>
					<dim>17</dim>
					<dim>17</dim>
				</port>
				<port id="1" precision="FP32">
					<dim>1</dim>
					<dim>64</dim>
					<dim>1</dim>
					<dim>1</dim>
					<dim>1</dim>
				</port>
			</input>
			<output>
				<port id="2" precision="FP32" names="/Merging/Merging.1/Conv3DBlock/Conv3DBlock.0/Conv_output_0">
					<dim>-1</dim>
					<dim>64</dim>
					<dim>7</dim>
					<dim>17</dim>
					<dim>17</dim>
				</port>
			</output>
		</layer>
		<layer id="114" name="/Merging/Merging.1/Conv3DBlock/activation/Relu" type="ReLU" version="opset1">
			<input>
				<port id="0" precision="FP32">
					<dim>-1</dim>
					<dim>64</dim>
					<dim>7</dim>
					<dim>17</dim>
					<dim>17</dim>
				</port>
			</input>
			<output>
				<port id="1" precision="FP32" names="/Merging/Merging.1/Conv3DBlock/activation/Relu_output_0">
					<dim>-1</dim>
					<dim>64</dim>
					<dim>7</dim>
					<dim>17</dim>
					<dim>17</dim>
				</port>
			</output>
		</layer>
		<layer id="115" name="onnx::Conv_293" type="Const" version="opset1">
			<data element_type="f32" shape="64, 64, 3, 1, 1" offset="466048" size="49152" />
			<output>
				<port id="0" precision="FP32" names="onnx::Conv_293">
					<dim>64</dim>
					<dim>64</dim>
					<dim>3</dim>
					<dim>1</dim>
					<dim>1</dim>
				</port>
			</output>
		</layer>
		<layer id="116" name="/Merging/Merging.1/Conv3DBlock/Conv3DBlock.3/Conv/WithoutBiases" type="Convolution" version="opset1">
			<data strides="1, 1, 1" dilations="1, 1, 1" pads_begin="1, 1, 1" pads_end="1, 1, 1" auto_pad="explicit" />
			<input>
				<port id="0" precision="FP32">
					<dim>-1</dim>
					<dim>64</dim>
					<dim>7</dim>
					<dim>17</dim>
					<dim>17</dim>
				</port>
				<port id="1" precision="FP32">
					<dim>64</dim>
					<dim>64</dim>
					<dim>3</dim>
					<dim>1</dim>
					<dim>1</dim>
				</port>
			</input>
			<output>
				<port id="2" precision="FP32">
					<dim>-1</dim>
					<dim>64</dim>
					<dim>7</dim>
					<dim>19</dim>
					<dim>19</dim>
				</port>
			</output>
		</layer>
		<layer id="117" name="Reshape_384" type="Const" version="opset1">
			<data element_type="f32" shape="1, 64, 1, 1, 1" offset="515200" size="256" />
			<output>
				<port id="0" precision="FP32">
					<dim>1</dim>
					<dim>64</dim>
					<dim>1</dim>
					<dim>1</dim>
					<dim>1</dim>
				</port>
			</output>
		</layer>
		<layer id="118" name="/Merging/Merging.1/Conv3DBlock/Conv3DBlock.3/Conv" type="Add" version="opset1">
			<data auto_broadcast="numpy" />
			<input>
				<port id="0" precision="FP32">
					<dim>-1</dim>
					<dim>64</dim>
					<dim>7</dim>
					<dim>19</dim>
					<dim>19</dim>
				</port>
				<port id="1" precision="FP32">
					<dim>1</dim>
					<dim>64</dim>
					<dim>1</dim>
					<dim>1</dim>
					<dim>1</dim>
				</port>
			</input>
			<output>
				<port id="2" precision="FP32" names="/Merging/Merging.1/Conv3DBlock/Conv3DBlock.3/Conv_output_0">
					<dim>-1</dim>
					<dim>64</dim>
					<dim>7</dim>
					<dim>19</dim>
					<dim>19</dim>
				</port>
			</output>
		</layer>
		<layer id="119" name="/Merging/Merging.1/Conv3DBlock/activation_1/Relu" type="ReLU" version="opset1">
			<input>
				<port id="0" precision="FP32">
					<dim>-1</dim>
					<dim>64</dim>
					<dim>7</dim>
					<dim>19</dim>
					<dim>19</dim>
				</port>
			</input>
			<output>
				<port id="1" precision="FP32" names="/Merging/Merging.1/Conv3DBlock/activation_1/Relu_output_0">
					<dim>-1</dim>
					<dim>64</dim>
					<dim>7</dim>
					<dim>19</dim>
					<dim>19</dim>
				</port>
			</output>
		</layer>
		<layer id="120" name="/Merging/Merging.1/Conv3DBlock/Conv3DBlock.6/MaxPool" type="MaxPool" version="opset8">
			<data strides="2, 1, 1" dilations="1, 1, 1" pads_begin="0, 0, 0" pads_end="0, 0, 0" kernel="2, 1, 1" rounding_type="floor" auto_pad="explicit" index_element_type="i64" axis="0" />
			<input>
				<port id="0" precision="FP32">
					<dim>-1</dim>
					<dim>64</dim>
					<dim>7</dim>
					<dim>19</dim>
					<dim>19</dim>
				</port>
			</input>
			<output>
				<port id="1" precision="FP32" names="/Merging/Merging.1/Conv3DBlock/Conv3DBlock.6/MaxPool_output_0">
					<dim>-1</dim>
					<dim>64</dim>
					<dim>3</dim>
					<dim>19</dim>
					<dim>19</dim>
				</port>
				<port id="2" precision="I64">
					<dim>-1</dim>
					<dim>64</dim>
					<dim>3</dim>
					<dim>19</dim>
					<dim>19</dim>
				</port>
			</output>
		</layer>
		<layer id="121" name="onnx::Conv_296" type="Const" version="opset1">
			<data element_type="f32" shape="128, 64, 1, 3, 3" offset="515456" size="294912" />
			<output>
				<port id="0" precision="FP32" names="onnx::Conv_296">
					<dim>128</dim>
					<dim>64</dim>
					<dim>1</dim>
					<dim>3</dim>
					<dim>3</dim>
				</port>
			</output>
		</layer>
		<layer id="122" name="/Merging/Merging.2/Conv3DBlock/Conv3DBlock.0/Conv/WithoutBiases" type="Convolution" version="opset1">
			<data strides="1, 1, 1" dilations="1, 1, 1" pads_begin="1, 1, 1" pads_end="1, 1, 1" auto_pad="explicit" />
			<input>
				<port id="0" precision="FP32">
					<dim>-1</dim>
					<dim>64</dim>
					<dim>3</dim>
					<dim>19</dim>
					<dim>19</dim>
				</port>
				<port id="1" precision="FP32">
					<dim>128</dim>
					<dim>64</dim>
					<dim>1</dim>
					<dim>3</dim>
					<dim>3</dim>
				</port>
			</input>
			<output>
				<port id="2" precision="FP32">
					<dim>-1</dim>
					<dim>128</dim>
					<dim>5</dim>
					<dim>19</dim>
					<dim>19</dim>
				</port>
			</output>
		</layer>
		<layer id="123" name="Reshape_401" type="Const" version="opset1">
			<data element_type="f32" shape="1, 128, 1, 1, 1" offset="810368" size="512" />
			<output>
				<port id="0" precision="FP32">
					<dim>1</dim>
					<dim>128</dim>
					<dim>1</dim>
					<dim>1</dim>
					<dim>1</dim>
				</port>
			</output>
		</layer>
		<layer id="124" name="/Merging/Merging.2/Conv3DBlock/Conv3DBlock.0/Conv" type="Add" version="opset1">
			<data auto_broadcast="numpy" />
			<input>
				<port id="0" precision="FP32">
					<dim>-1</dim>
					<dim>128</dim>
					<dim>5</dim>
					<dim>19</dim>
					<dim>19</dim>
				</port>
				<port id="1" precision="FP32">
					<dim>1</dim>
					<dim>128</dim>
					<dim>1</dim>
					<dim>1</dim>
					<dim>1</dim>
				</port>
			</input>
			<output>
				<port id="2" precision="FP32" names="/Merging/Merging.2/Conv3DBlock/Conv3DBlock.0/Conv_output_0">
					<dim>-1</dim>
					<dim>128</dim>
					<dim>5</dim>
					<dim>19</dim>
					<dim>19</dim>
				</port>
			</output>
		</layer>
		<layer id="125" name="/Merging/Merging.2/Conv3DBlock/activation/Relu" type="ReLU" version="opset1">
			<input>
				<port id="0" precision="FP32">
					<dim>-1</dim>
					<dim>128</dim>
					<dim>5</dim>
					<dim>19</dim>
					<dim>19</dim>
				</port>
			</input>
			<output>
				<port id="1" precision="FP32" names="/Merging/Merging.2/Conv3DBlock/activation/Relu_output_0">
					<dim>-1</dim>
					<dim>128</dim>
					<dim>5</dim>
					<dim>19</dim>
					<dim>19</dim>
				</port>
			</output>
		</layer>
		<layer id="126" name="onnx::Conv_299" type="Const" version="opset1">
			<data element_type="f32" shape="128, 128, 3, 1, 1" offset="810880" size="196608" />
			<output>
				<port id="0" precision="FP32" names="onnx::Conv_299">
					<dim>128</dim>
					<dim>128</dim>
					<dim>3</dim>
					<dim>1</dim>
					<dim>1</dim>
				</port>
			</output>
		</layer>
		<layer id="127" name="/Merging/Merging.2/Conv3DBlock/Conv3DBlock.3/Conv/WithoutBiases" type="Convolution" version="opset1">
			<data strides="1, 1, 1" dilations="1, 1, 1" pads_begin="1, 1, 1" pads_end="1, 1, 1" auto_pad="explicit" />
			<input>
				<port id="0" precision="FP32">
					<dim>-1</dim>
					<dim>128</dim>
					<dim>5</dim>
					<dim>19</dim>
					<dim>19</dim>
				</port>
				<port id="1" precision="FP32">
					<dim>128</dim>
					<dim>128</dim>
					<dim>3</dim>
					<dim>1</dim>
					<dim>1</dim>
				</port>
			</input>
			<output>
				<port id="2" precision="FP32">
					<dim>-1</dim>
					<dim>128</dim>
					<dim>5</dim>
					<dim>21</dim>
					<dim>21</dim>
				</port>
			</output>
		</layer>
		<layer id="128" name="Reshape_417" type="Const" version="opset1">
			<data element_type="f32" shape="1, 128, 1, 1, 1" offset="1007488" size="512" />
			<output>
				<port id="0" precision="FP32">
					<dim>1</dim>
					<dim>128</dim>
					<dim>1</dim>
					<dim>1</dim>
					<dim>1</dim>
				</port>
			</output>
		</layer>
		<layer id="129" name="/Merging/Merging.2/Conv3DBlock/Conv3DBlock.3/Conv" type="Add" version="opset1">
			<data auto_broadcast="numpy" />
			<input>
				<port id="0" precision="FP32">
					<dim>-1</dim>
					<dim>128</dim>
					<dim>5</dim>
					<dim>21</dim>
					<dim>21</dim>
				</port>
				<port id="1" precision="FP32">
					<dim>1</dim>
					<dim>128</dim>
					<dim>1</dim>
					<dim>1</dim>
					<dim>1</dim>
				</port>
			</input>
			<output>
				<port id="2" precision="FP32" names="/Merging/Merging.2/Conv3DBlock/Conv3DBlock.3/Conv_output_0">
					<dim>-1</dim>
					<dim>128</dim>
					<dim>5</dim>
					<dim>21</dim>
					<dim>21</dim>
				</port>
			</output>
		</layer>
		<layer id="130" name="/Merging/Merging.2/Conv3DBlock/activation_1/Relu" type="ReLU" version="opset1">
			<input>
				<port id="0" precision="FP32">
					<dim>-1</dim>
					<dim>128</dim>
					<dim>5</dim>
					<dim>21</dim>
					<dim>21</dim>
				</port>
			</input>
			<output>
				<port id="1" precision="FP32" names="/Merging/Merging.2/Conv3DBlock/activation_1/Relu_output_0">
					<dim>-1</dim>
					<dim>128</dim>
					<dim>5</dim>
					<dim>21</dim>
					<dim>21</dim>
				</port>
			</output>
		</layer>
		<layer id="131" name="/Merging/Merging.2/Conv3DBlock/Conv3DBlock.6/MaxPool" type="MaxPool" version="opset8">
			<data strides="2, 1, 1" dilations="1, 1, 1" pads_begin="0, 0, 0" pads_end="0, 0, 0" kernel="2, 1, 1" rounding_type="floor" auto_pad="explicit" index_element_type="i64" axis="0" />
			<input>
				<port id="0" precision="FP32">
					<dim>-1</dim>
					<dim>128</dim>
					<dim>5</dim>
					<dim>21</dim>
					<dim>21</dim>
				</port>
			</input>
			<output>
				<port id="1" precision="FP32" names="/Merging/Merging.2/Conv3DBlock/Conv3DBlock.6/MaxPool_output_0">
					<dim>-1</dim>
					<dim>128</dim>
					<dim>2</dim>
					<dim>21</dim>
					<dim>21</dim>
				</port>
				<port id="2" precision="I64">
					<dim>-1</dim>
					<dim>128</dim>
					<dim>2</dim>
					<dim>21</dim>
					<dim>21</dim>
				</port>
			</output>
		</layer>
		<layer id="132" name="Range_429" type="Const" version="opset1">
			<data element_type="i64" shape="3" offset="1008000" size="24" />
			<output>
				<port id="0" precision="I64">
					<dim>3</dim>
				</port>
			</output>
		</layer>
		<layer id="133" name="/global_avg_pool/GlobalAveragePool" type="ReduceMean" version="opset1">
			<data keep_dims="true" />
			<input>
				<port id="0" precision="FP32">
					<dim>-1</dim>
					<dim>128</dim>
					<dim>2</dim>
					<dim>21</dim>
					<dim>21</dim>
				</port>
				<port id="1" precision="I64">
					<dim>3</dim>
				</port>
			</input>
			<output>
				<port id="2" precision="FP32" names="/global_avg_pool/GlobalAveragePool_output_0">
					<dim>-1</dim>
					<dim>128</dim>
					<dim>1</dim>
					<dim>1</dim>
					<dim>1</dim>
				</port>
			</output>
		</layer>
		<layer id="134" name="Constant_433" type="Const" version="opset1">
			<data element_type="i64" shape="2" offset="1008024" size="16" />
			<output>
				<port id="0" precision="I64">
					<dim>2</dim>
				</port>
			</output>
		</layer>
		<layer id="135" name="/Flatten" type="Reshape" version="opset1">
			<data special_zero="true" />
			<input>
				<port id="0" precision="FP32">
					<dim>-1</dim>
					<dim>128</dim>
					<dim>1</dim>
					<dim>1</dim>
					<dim>1</dim>
				</port>
				<port id="1" precision="I64">
					<dim>2</dim>
				</port>
			</input>
			<output>
				<port id="2" precision="FP32" names="/Flatten_output_0">
					<dim>-1</dim>
					<dim>128</dim>
				</port>
			</output>
		</layer>
		<layer id="136" name="fc.weight" type="Const" version="opset1">
			<data element_type="f32" shape="2, 128" offset="1008040" size="1024" />
			<output>
				<port id="0" precision="FP32" names="fc.weight">
					<dim>2</dim>
					<dim>128</dim>
				</port>
			</output>
		</layer>
		<layer id="137" name="/fc/Gemm/WithoutBiases" type="MatMul" version="opset1">
			<data transpose_a="false" transpose_b="true" />
			<input>
				<port id="0" precision="FP32">
					<dim>-1</dim>
					<dim>128</dim>
				</port>
				<port id="1" precision="FP32">
					<dim>2</dim>
					<dim>128</dim>
				</port>
			</input>
			<output>
				<port id="2" precision="FP32">
					<dim>-1</dim>
					<dim>2</dim>
				</port>
			</output>
		</layer>
		<layer id="138" name="Constant_2162" type="Const" version="opset1">
			<data element_type="f32" shape="1, 2" offset="1009064" size="8" />
			<output>
				<port id="0" precision="FP32">
					<dim>1</dim>
					<dim>2</dim>
				</port>
			</output>
		</layer>
		<layer id="139" name="/fc/Gemm" type="Add" version="opset1">
			<data auto_broadcast="numpy" />
			<input>
				<port id="0" precision="FP32">
					<dim>-1</dim>
					<dim>2</dim>
				</port>
				<port id="1" precision="FP32">
					<dim>1</dim>
					<dim>2</dim>
				</port>
			</input>
			<output>
				<port id="2" precision="FP32" names="/fc/Gemm_output_0">
					<dim>-1</dim>
					<dim>2</dim>
				</port>
			</output>
		</layer>
		<layer id="140" name="/Concat" type="Const" version="opset1">
			<data element_type="i64" shape="2" offset="1009072" size="16" />
			<output>
				<port id="0" precision="I64">
					<dim>2</dim>
				</port>
			</output>
		</layer>
		<layer id="141" name="output" type="Reshape" version="opset1">
			<data special_zero="true" />
			<input>
				<port id="0" precision="FP32">
					<dim>-1</dim>
					<dim>2</dim>
				</port>
				<port id="1" precision="I64">
					<dim>2</dim>
				</port>
			</input>
			<output>
				<port id="2" precision="FP32" names="output">
					<dim>-1</dim>
					<dim>2</dim>
				</port>
			</output>
		</layer>
		<layer id="142" name="output/sink_port_0" type="Result" version="opset1">
			<input>
				<port id="0" precision="FP32">
					<dim>-1</dim>
					<dim>2</dim>
				</port>
			</input>
		</layer>
	</layers>
	<edges>
		<edge from-layer="0" from-port="0" to-layer="52" to-port="0" />
		<edge from-layer="0" from-port="0" to-layer="4" to-port="0" />
		<edge from-layer="1" from-port="0" to-layer="4" to-port="1" />
		<edge from-layer="2" from-port="0" to-layer="4" to-port="2" />
		<edge from-layer="3" from-port="0" to-layer="4" to-port="3" />
		<edge from-layer="4" from-port="4" to-layer="6" to-port="0" />
		<edge from-layer="5" from-port="0" to-layer="6" to-port="1" />
		<edge from-layer="6" from-port="2" to-layer="8" to-port="0" />
		<edge from-layer="7" from-port="0" to-layer="8" to-port="1" />
		<edge from-layer="8" from-port="2" to-layer="9" to-port="0" />
		<edge from-layer="9" from-port="1" to-layer="11" to-port="0" />
		<edge from-layer="10" from-port="0" to-layer="11" to-port="1" />
		<edge from-layer="11" from-port="2" to-layer="13" to-port="0" />
		<edge from-layer="12" from-port="0" to-layer="13" to-port="1" />
		<edge from-layer="13" from-port="2" to-layer="14" to-port="0" />
		<edge from-layer="14" from-port="1" to-layer="15" to-port="0" />
		<edge from-layer="15" from-port="1" to-layer="17" to-port="0" />
		<edge from-layer="16" from-port="0" to-layer="17" to-port="1" />
		<edge from-layer="17" from-port="2" to-layer="19" to-port="0" />
		<edge from-layer="18" from-port="0" to-layer="19" to-port="1" />
		<edge from-layer="19" from-port="2" to-layer="20" to-port="0" />
		<edge from-layer="20" from-port="1" to-layer="22" to-port="0" />
		<edge from-layer="21" from-port="0" to-layer="22" to-port="1" />
		<edge from-layer="22" from-port="2" to-layer="24" to-port="0" />
		<edge from-layer="23" from-port="0" to-layer="24" to-port="1" />
		<edge from-layer="24" from-port="2" to-layer="25" to-port="0" />
		<edge from-layer="25" from-port="1" to-layer="26" to-port="0" />
		<edge from-layer="26" from-port="1" to-layer="28" to-port="0" />
		<edge from-layer="27" from-port="0" to-layer="28" to-port="1" />
		<edge from-layer="28" from-port="2" to-layer="30" to-port="0" />
		<edge from-layer="29" from-port="0" to-layer="30" to-port="1" />
		<edge from-layer="30" from-port="2" to-layer="31" to-port="0" />
		<edge from-layer="31" from-port="1" to-layer="33" to-port="0" />
		<edge from-layer="32" from-port="0" to-layer="33" to-port="1" />
		<edge from-layer="33" from-port="2" to-layer="35" to-port="0" />
		<edge from-layer="34" from-port="0" to-layer="35" to-port="1" />
		<edge from-layer="35" from-port="2" to-layer="36" to-port="0" />
		<edge from-layer="36" from-port="1" to-layer="37" to-port="0" />
		<edge from-layer="37" from-port="1" to-layer="39" to-port="0" />
		<edge from-layer="38" from-port="0" to-layer="39" to-port="1" />
		<edge from-layer="39" from-port="2" to-layer="41" to-port="0" />
		<edge from-layer="40" from-port="0" to-layer="41" to-port="1" />
		<edge from-layer="41" from-port="2" to-layer="42" to-port="0" />
		<edge from-layer="42" from-port="1" to-layer="44" to-port="0" />
		<edge from-layer="43" from-port="0" to-layer="44" to-port="1" />
		<edge from-layer="44" from-port="2" to-layer="46" to-port="0" />
		<edge from-layer="45" from-port="0" to-layer="46" to-port="1" />
		<edge from-layer="46" from-port="2" to-layer="47" to-port="0" />
		<edge from-layer="47" from-port="1" to-layer="48" to-port="0" />
		<edge from-layer="48" from-port="1" to-layer="97" to-port="0" />
		<edge from-layer="49" from-port="0" to-layer="52" to-port="1" />
		<edge from-layer="50" from-port="0" to-layer="52" to-port="2" />
		<edge from-layer="51" from-port="0" to-layer="52" to-port="3" />
		<edge from-layer="52" from-port="4" to-layer="54" to-port="0" />
		<edge from-layer="53" from-port="0" to-layer="54" to-port="1" />
		<edge from-layer="54" from-port="2" to-layer="56" to-port="0" />
		<edge from-layer="55" from-port="0" to-layer="56" to-port="1" />
		<edge from-layer="56" from-port="2" to-layer="57" to-port="0" />
		<edge from-layer="57" from-port="1" to-layer="59" to-port="0" />
		<edge from-layer="58" from-port="0" to-layer="59" to-port="1" />
		<edge from-layer="59" from-port="2" to-layer="61" to-port="0" />
		<edge from-layer="60" from-port="0" to-layer="61" to-port="1" />
		<edge from-layer="61" from-port="2" to-layer="62" to-port="0" />
		<edge from-layer="62" from-port="1" to-layer="63" to-port="0" />
		<edge from-layer="63" from-port="1" to-layer="65" to-port="0" />
		<edge from-layer="64" from-port="0" to-layer="65" to-port="1" />
		<edge from-layer="65" from-port="2" to-layer="67" to-port="0" />
		<edge from-layer="66" from-port="0" to-layer="67" to-port="1" />
		<edge from-layer="67" from-port="2" to-layer="68" to-port="0" />
		<edge from-layer="68" from-port="1" to-layer="70" to-port="0" />
		<edge from-layer="69" from-port="0" to-layer="70" to-port="1" />
		<edge from-layer="70" from-port="2" to-layer="72" to-port="0" />
		<edge from-layer="71" from-port="0" to-layer="72" to-port="1" />
		<edge from-layer="72" from-port="2" to-layer="73" to-port="0" />
		<edge from-layer="73" from-port="1" to-layer="74" to-port="0" />
		<edge from-layer="74" from-port="1" to-layer="76" to-port="0" />
		<edge from-layer="75" from-port="0" to-layer="76" to-port="1" />
		<edge from-layer="76" from-port="2" to-layer="78" to-port="0" />
		<edge from-layer="77" from-port="0" to-layer="78" to-port="1" />
		<edge from-layer="78" from-port="2" to-layer="79" to-port="0" />
		<edge from-layer="79" from-port="1" to-layer="81" to-port="0" />
		<edge from-layer="80" from-port="0" to-layer="81" to-port="1" />
		<edge from-layer="81" from-port="2" to-layer="83" to-port="0" />
		<edge from-layer="82" from-port="0" to-layer="83" to-port="1" />
		<edge from-layer="83" from-port="2" to-layer="84" to-port="0" />
		<edge from-layer="84" from-port="1" to-layer="85" to-port="0" />
		<edge from-layer="85" from-port="1" to-layer="87" to-port="0" />
		<edge from-layer="86" from-port="0" to-layer="87" to-port="1" />
		<edge from-layer="87" from-port="2" to-layer="89" to-port="0" />
		<edge from-layer="88" from-port="0" to-layer="89" to-port="1" />
		<edge from-layer="89" from-port="2" to-layer="90" to-port="0" />
		<edge from-layer="90" from-port="1" to-layer="92" to-port="0" />
		<edge from-layer="91" from-port="0" to-layer="92" to-port="1" />
		<edge from-layer="92" from-port="2" to-layer="94" to-port="0" />
		<edge from-layer="93" from-port="0" to-layer="94" to-port="1" />
		<edge from-layer="94" from-port="2" to-layer="95" to-port="0" />
		<edge from-layer="95" from-port="1" to-layer="96" to-port="0" />
		<edge from-layer="96" from-port="1" to-layer="97" to-port="1" />
		<edge from-layer="97" from-port="2" to-layer="98" to-port="0" />
		<edge from-layer="98" from-port="1" to-layer="100" to-port="0" />
		<edge from-layer="99" from-port="0" to-layer="100" to-port="1" />
		<edge from-layer="100" from-port="2" to-layer="102" to-port="0" />
		<edge from-layer="101" from-port="0" to-layer="102" to-port="1" />
		<edge from-layer="102" from-port="2" to-layer="103" to-port="0" />
		<edge from-layer="103" from-port="1" to-layer="105" to-port="0" />
		<edge from-layer="104" from-port="0" to-layer="105" to-port="1" />
		<edge from-layer="105" from-port="2" to-layer="107" to-port="0" />
		<edge from-layer="106" from-port="0" to-layer="107" to-port="1" />
		<edge from-layer="107" from-port="2" to-layer="108" to-port="0" />
		<edge from-layer="108" from-port="1" to-layer="109" to-port="0" />
		<edge from-layer="109" from-port="1" to-layer="111" to-port="0" />
		<edge from-layer="110" from-port="0" to-layer="111" to-port="1" />
		<edge from-layer="111" from-port="2" to-layer="113" to-port="0" />
		<edge from-layer="112" from-port="0" to-layer="113" to-port="1" />
		<edge from-layer="113" from-port="2" to-layer="114" to-port="0" />
		<edge from-layer="114" from-port="1" to-layer="116" to-port="0" />
		<edge from-layer="115" from-port="0" to-layer="116" to-port="1" />
		<edge from-layer="116" from-port="2" to-layer="118" to-port="0" />
		<edge from-layer="117" from-port="0" to-layer="118" to-port="1" />
		<edge from-layer="118" from-port="2" to-layer="119" to-port="0" />
		<edge from-layer="119" from-port="1" to-layer="120" to-port="0" />
		<edge from-layer="120" from-port="1" to-layer="122" to-port="0" />
		<edge from-layer="121" from-port="0" to-layer="122" to-port="1" />
		<edge from-layer="122" from-port="2" to-layer="124" to-port="0" />
		<edge from-layer="123" from-port="0" to-layer="124" to-port="1" />
		<edge from-layer="124" from-port="2" to-layer="125" to-port="0" />
		<edge from-layer="125" from-port="1" to-layer="127" to-port="0" />
		<edge from-layer="126" from-port="0" to-layer="127" to-port="1" />
		<edge from-layer="127" from-port="2" to-layer="129" to-port="0" />
		<edge from-layer="128" from-port="0" to-layer="129" to-port="1" />
		<edge from-layer="129" from-port="2" to-layer="130" to-port="0" />
		<edge from-layer="130" from-port="1" to-layer="131" to-port="0" />
		<edge from-layer="131" from-port="1" to-layer="133" to-port="0" />
		<edge from-layer="132" from-port="0" to-layer="133" to-port="1" />
		<edge from-layer="133" from-port="2" to-layer="135" to-port="0" />
		<edge from-layer="134" from-port="0" to-layer="135" to-port="1" />
		<edge from-layer="135" from-port="2" to-layer="137" to-port="0" />
		<edge from-layer="136" from-port="0" to-layer="137" to-port="1" />
		<edge from-layer="137" from-port="2" to-layer="139" to-port="0" />
		<edge from-layer="138" from-port="0" to-layer="139" to-port="1" />
		<edge from-layer="139" from-port="2" to-layer="141" to-port="0" />
		<edge from-layer="140" from-port="0" to-layer="141" to-port="1" />
		<edge from-layer="141" from-port="2" to-layer="142" to-port="0" />
	</edges>
	<rt_info>
		<MO_version value="2023.0.1-11005-fa1c41994f3-releases/2023/0" />
		<Runtime_version value="2023.0.1-11005-fa1c41994f3-releases/2023/0" />
		<conversion_parameters>
			<input_model value="DIR/fgn.onnx" />
			<input_shape value="[-1,5,64,224,224]" />
			<is_python_api_used value="False" />
			<model_name value="FGN" />
			<output_dir value="DIR" />
		</conversion_parameters>
		<legacy_frontend value="False" />
	</rt_info>
</net>
